Electro/new/best_multistate_pinn.pth (torch, 178297 bytes, 17 tensors)

shared_net.0.weight f4 [128, 4]
0	0xbe2b6a7e	-0.16739842
1	0x3de247e3	0.110488676
2	0x3dea4d9c	0.11440584
3	0xbe69a67a	-0.22817412
4	0x3df72a19	0.12068576
5	0xbebdac27	-0.37045404
6	0x3b54574e	0.003240067
7	0xbe004b19	-0.12528647
8	0x3dbaa8e2	0.09114243
9	0xbd2fea38	-0.042947978
10	0xbe44cff7	-0.19219957
11	0xbe28b81c	-0.16476482
12	0xbd9b3498	-0.07578391
13	0xbc9b1499	-0.01893072
14	0x3e018b57	0.1265081
15	0x3de6d4f5	0.11271087
16	0x3c2d2951	0.010568933
17	0x3e9141fa	0.2837065
18	0x3d787015	0.060653765
19	0xbd2379c9	-0.039911065
20	0xbd9d348a	-0.07676037
21	0x3cf4e90d	0.029896284
22	0x3d82ab14	0.06380287
23	0xbcbac44f	-0.022798685
24	0xbd103664	-0.03520812
25	0x3da4f1b6	0.08053915
26	0x3de9e694	0.114209324
27	0xbdca7681	-0.09885884
28	0xbdf8741e	-0.121315226
29	0x3e45f950	0.19333386
30	0x3dc87d25	0.097894944
31	0xbd811b40	-0.06304026
32	0xbca6c4c9	-0.020357506
33	0xbdad913a	-0.084749654
34	0xbd19916e	-0.03749221
35	0x3a80bc40	0.0009821728
36	0x3d23c8e0	0.03998649
37	0x3c1ff08a	0.009761939
38	0xbd0afad1	-0.033930603
39	0x3e2478ef	0.16061758
40	0xba38f041	-0.00070548436
41	0xbddce953	-0.107866906
42	0x3e21cfc3	0.15801911
43	0x3b88cde4	0.0041749347
44	0x3c8f8fa8	0.017524555
45	0xbe352f31	-0.17693783
46	0x3d735d30	0.059415042
47	0x3d230cdd	0.03980719
48	0xbe197fac	-0.14990109
49	0xbc6147a4	-0.013749991
50	0x3d7b0d46	0.061291955
51	0x3e7a43dc	0.24439949
52	0xbe8e21bb	-0.2776011
53	0xbd020c40	-0.031749964
54	0x3d72b958	0.05925879
55	0xbd92f8f7	-0.071763925
56	0x3d61ab8c	0.05509524
57	0x3e5c480a	0.21511856
58	0xbd4a7b47	-0.049433973
59	0xbd0afe2b	-0.0339338
60	0x3db3393d	0.08751152
61	0xbdf05940	-0.11735773
62	0xbe143746	-0.1447421
63	0x3e8b3e15	0.27195802
64	0x3d5b097b	0.05347584
65	0xbcb0d4e0	-0.021585882
66	0xbd8ffb9e	-0.07030414
67	0x3e0f6982	0.14005092
68	0x3e2b3127	0.16717969
69	0x3d0867d4	0.033302143
70	0xbd48eeaf	-0.04905575
71	0xbd091a08	-0.03347209
72	0x3d4492a7	0.04799142
73	0x3d1978db	0.037468772
74	0x3e01ec69	0.1268784
75	0xbe99b3c3	-0.3001996
76	0x3c7be0a6	0.015373385
77	0x3df712aa	0.12064107
78	0xbdb3e08f	-0.087830655
79	0x3d81539c	0.06314775
80	0xbd2960b5	-0.041351993
81	0x3e3de329	0.18543686
82	0x3cbea41c	0.023271613
83	0x3d3ade30	0.04562205
84	0x3e9dfdba	0.3085764
85	0xbcce9eda	-0.02522223
86	0xbe463f12	-0.19359997
87	0xbc21a63f	-0.009866296
88	0xbd8aa025	-0.067688264
89	0xbd8793b6	-0.066199705
90	0x3d6ad6e9	0.05733386
91	0x3e2d05fc	0.16896814
92	0xbe036385	-0.12830932
93	0x3da8e561	0.082468756
94	0x3e53b3a8	0.20674002
95	0x3df5f3ee	0.120094165
96	0x3d1b230f	0.03787523
97	0x3bc0fba4	0.005889373
98	0x3dbbcae7	0.0916956
99	0x3bc551be	0.0060217073
100	0x3d53e843	0.051735174
101	0x3ca8de8d	0.020613933
102	0x3dd56e11	0.10421384
103	0x3d96303b	0.07333418
104	0xbcc897b7	-0.024486406
105	0x3d39d5c9	0.045369897
106	0x3d4310c0	0.047623396
107	0xbdcc7ff9	-0.09985346
108	0xbe1ba620	-0.1520009
109	0xbe12b7e5	-0.14327963
110	0x3e0c196c	0.13681573
111	0x3cab60db	0.020920208
112	0x3dbd90a1	0.092561014
113	0xbe1125ea	-0.1417462
114	0xbd91466d	-0.07093511
115	0x3c8d75b8	0.017268047
116	0xbd20b07a	-0.0392308
117	0xbe10336a	-0.14082113
118	0x3d2ae315	0.04172047
119	0xbe6e98a6	-0.23300418
120	0xbd4246e5	-0.04743089
121	0xbdd32f95	-0.1031181
122	0xbc898514	-0.01678709
123	0xbcf68631	-0.030093284
124	0xbe4a8223	-0.19776206
125	0xbe6b6985	-0.22989471
126	0xbc8113fd	-0.015756601
127	0x3e5a7e75	0.21337302
128	0xbc949c07	-0.018140806
129	0xbdd9449f	-0.106087916
130	0x3e13845a	0.14405957
131	0xbe793e1b	-0.24340098
132	0xbd6109ed	-0.054941107
133	0xbd2c9a9c	-0.042139634
134	0xbe45f1c2	-0.19330505
135	0x3d856514	0.0651342
136	0x3ddbbb53	0.10729089
137	0x3e3c18a6	0.18368778
138	0x3dba0821	0.09083582
139	0xbe23d277	-0.15998255
140	0x3da26b5b	0.07930633
141	0xbe3f371d	-0.18673368
142	0xbdab5207	-0.08365255
143	0x3d75832a	0.05993954
144	0xbd59060f	-0.052984294
145	0x3d7b1294	0.061297014
146	0x3cbc3019	0.022972153
147	0xbb8416c9	-0.0040310365
148	0xbdd2a194	-0.10284725
149	0x3e5dd0d0	0.21661687
150	0xbdc4e37c	-0.09613702
151	0x3d0eeba0	0.03489268
152	0xbe2b7f1b	-0.16747706
153	0xbdbb82f6	-0.09155838
154	0xbe40e39a	-0.18836823
155	0x3e5b2409	0.21400465
156	0x3e5326da	0.2062029
157	0x3d8f3b99	0.06993789
158	0x3d0d60b9	0.03451607
159	0xbdc51d4f	-0.09624731
160	0x3d349086	0.04408314
161	0x3e47ad7d	0.19499774
162	0x3e43863e	0.19094178
163	0xbe02e8b1	-0.12784077
164	0xbe10d9ba	-0.14145556
165	0x3d1c84ba	0.038212515
166	0xbe9f4123	-0.31104383
167	0xbc52df61	-0.0128706405
168	0x3e9005f2	0.28129536
169	0x3df5c057	0.119995765
170	0xbc04708a	-0.008083472
171	0x3d71c33a	0.059024073
172	0x3e5f1b96	0.21787867
173	0xbe9648f3	-0.2935253
174	0x3b0d922c	0.0021602018
175	0x3c9ee2b9	0.01939522
176	0xbe04e650	-0.12978482
177	0xbdd06275	-0.10175029
178	0xbe53ef16	-0.20696673
179	0x3c18ad92	0.009318726
180	0x3e14a81a	0.1451725
181	0x3e5908e7	0.21194802
182	0x3d0d3837	0.03447744
183	0xbd28a7e3	-0.041175734
184	0xbdf33000	-0.1187439
185	0xbceb9fa3	-0.028762644
186	0xbd680abc	-0.056650862
187	0xbd183e9b	-0.03716908
188	0xbd366b9c	-0.044536218
189	0xbce4e8f0	-0.027943105
190	0xbd45f0fd	-0.048325527
191	0x3d82ee35	0.06393091
192	0x3d79b1a3	0.060960423
193	0x3d0076b8	0.03136322
194	0xbe10aa45	-0.14127453
195	0x3d590bb8	0.05298969
196	0x3c8c9e80	0.017165422
197	0xbdb08b82	-0.08620359
198	0x3e75383d	0.23947234
199	0xbcd675c3	-0.0261792
200	0x3d950725	0.07276753
201	0x3dfe6e30	0.1242336
202	0x3d7b3d42	0.061337717
203	0x3d8005a7	0.06251078
204	0x3d59c43e	0.053165667
205	0xbecf3a0b	-0.4047397
206	0xbe0d8b28	-0.13822615
207	0xbd0bd93a	-0.03414271
208	0x3d82d4eb	0.06388267
209	0x3e0a7b15	0.13523515
210	0x3e12d117	0.14337574
211	0x3cc2205c	0.02369707
212	0xbccbd6aa	-0.024882633
213	0x3d92e037	0.07171672
214	0xbe69b328	-0.22822249
215	0x3dc97a05	0.098377265
216	0xbe25815d	-0.1616263
217	0xbda3f1c1	-0.08005095
218	0xbd7147da	-0.058906414
219	0x3c9cb4d2	0.01912919
220	0x3d62379a	0.055228807
221	0xbdf2ddd6	-0.11858718
222	0xbe3c80ec	-0.18408555
223	0x3db48866	0.088150784
224	0xbc587fce	-0.013214065
225	0xbe115ebf	-0.14196299
226	0x3df7dcae	0.12102638
227	0x3d7c9253	0.061662983
228	0x3d1d8f47	0.038466718
229	0xbc142963	-0.0090430705
230	0xbda24f2a	-0.079252556
231	0xbdc37e56	-0.09545581
232	0x3e543ab9	0.20725526
233	0xbe82dbe3	-0.25558385
234	0xbd11bb64	-0.0355791
235	0x3d76f899	0.060295675
236	0xbe39a939	-0.1813096
237	0x3b6d5047	0.003621118
238	0xbd1af902	-0.03783513
239	0xbd55c4a0	-0.05218947
240	0xbd5663b2	-0.05234117
241	0x3dc2cb77	0.09511464
242	0x3e255904	0.16147238
243	0xbdafe600	-0.08588791
244	0x3bc02f00	0.005864978
245	0xbe2e2eba	-0.17010012
246	0x3d337406	0.04381182
247	0x3e8241fb	0.25440964
248	0xbd9e6ecd	-0.07735977
249	0xbe2a61f6	-0.16638932
250	0x3da96cf5	0.08272735
251	0xbe23c351	-0.15992476
252	0xbe017761	-0.12643196
253	0x3d07bbe9	0.03313819
254	0x3e147d66	0.1450096
255	0x3da6ab11	0.08138097

shared_net.0.bias f4 [128]
0	0x3b4c54b9	0.0031178428
1	0x3c874ff2	0.016517613
2	0x3ce82c19	0.02834134
3	0x3cb5ac1b	0.022176793
4	0xbca3b358	-0.019982979
5	0xbbbe02f1	-0.0057986905
6	0xbb328e85	-0.0027245593
7	0x3c46873b	0.012117202
8	0x3c7ea66c	0.015542608
9	0x3ce215db	0.027598312
10	0xbbc3bb9f	-0.005973294
11	0x3d1de392	0.038547106
12	0x3b7a7cb7	0.0038221308
13	0x3cc49683	0.02399755
14	0x3caee534	0.021349527
15	0xb737cfa5	-1.0955996e-05
16	0x3bbaad77	0.005696948
17	0x3cd420d0	0.025894552
18	0xbc0b99d7	-0.008520565
19	0x3c9e2cd6	0.019308489
20	0x3d0088fc	0.03138064
21	0x3d1c99b5	0.038232524
22	0x3c89759f	0.016779719
23	0xbb35f7dd	-0.0027766146
24	0xbaadcfd3	-0.0013260789
25	0x3cc80c4f	0.024419932
26	0x3c821675	0.015879849
27	0x3d2271f7	0.039659467
28	0x3ca2a8a8	0.019855812
29	0xbc9ca814	-0.019123115
30	0x3caae671	0.020861836
31	0xbad4a0fe	-0.0016222296
32	0x3c307e80	0.010772347
33	0xba89a995	-0.001050281
34	0x3c51a820	0.012796432
35	0x3cb4bb2c	0.022061907
36	0x3c9b6035	0.018966774
37	0x3c69c959	0.014269196
38	0x3b4db42d	0.003138791
39	0x3cd6ba4a	0.026211876
40	0x3c932c8e	0.017965581
41	0x3b00b1cd	0.0019637228
42	0xbbff90e1	-0.0077992533
43	0xbc3e2957	-0.011606536
44	0xbb076dc0	-0.0020664781
45	0x3c77b0ff	0.015117883
46	0x3cea7f8c	0.028625272
47	0x3d27374a	0.040824212
48	0xbc0dedf6	-0.008662691
49	0x3cbff324	0.023431368
50	0x3c91897a	0.01776575
51	0x3c6d0b06	0.01446796
52	0x3b5e25d3	0.0033897057
53	0x3cb2dc80	0.021833658
54	0x3c9ce13b	0.019150367
55	0x3c950388	0.01819016
56	0x3c49d13b	0.012317951
57	0xbce96bec	-0.028493844
58	0x3cbd6e9e	0.023124035
59	0xbbc89d53	-0.00612227
60	0x3c973837	0.018459423
61	0x3b93ea15	0.0045139887
62	0x3c05f26e	0.0081754755
63	0xbb6e074c	-0.0036320267
64	0xbc3381bd	-0.010956225
65	0xbbeedfed	-0.0072898776
66	0x3c14ee1c	0.009089973
67	0x3b892fe8	0.004186619
68	0x3bd4ed8c	0.0064980444
69	0xbcd527ef	-0.026020018
70	0x3c036cf4	0.008021582
71	0x3ba43622	0.005011336
72	0x3bc7918b	0.006090348
73	0x3d0ab75f	0.033866283
74	0x3b214320	0.002460666
75	0x3caf8714	0.021426715
76	0x3c810264	0.01574821
77	0xbc0c3573	-0.008557665
78	0x3b4171be	0.0029517259
79	0xbbeb81d7	-0.007187109
80	0x3c339780	0.010961413
81	0x3c89d6d3	0.016826069
82	0x3b4e3190	0.0031462647
83	0xbbd7e95b	-0.0065890974
84	0x3c751557	0.014958701
85	0xbadcf1d9	-0.0016856744
86	0xbc9f4abd	-0.019444818
87	0xbb9732ec	-0.0046142247
88	0x3c61dc45	0.0137854265
89	0x3c91d95a	0.017803837
90	0xbbb9aa80	-0.005666077
91	0xbbfb0740	-0.0076607764
92	0xbb1990a5	-0.0023432162
93	0x3c165e98	0.009177826
94	0x3c89d9f0	0.016827554
95	0x3cca2e0a	0.024680156
96	0x3c044cee	0.008074982
97	0x3bac3a7b	0.005255995
98	0x3d0c325e	0.03422772
99	0x3cbaa801	0.022785189
100	0x3b3c5343	0.0028736151
101	0x3cdbfb01	0.026853086
102	0x3bee7664	0.007277297
103	0x3c06c48a	0.0082255695
104	0x3bd1d191	0.006403156
105	0x3cd166b7	0.025561674
106	0x39c11c73	0.00036833025
107	0x3caab261	0.02083701
108	0x3b4864ac	0.0030577583
109	0xbb70a73f	-0.003672078
110	0x3c962a20	0.018330634
111	0x3bc54911	0.006020673
112	0xbc62d599	-0.013844871
113	0xbc4b32eb	-0.0124022765
114	0xbc9798f1	-0.018505545
115	0x3ccc4d74	0.024939276
116	0x3c81d1c6	0.015847098
117	0x3cbf8a47	0.023381365
118	0x3b553467	0.0032532455
119	0x3ae33b15	0.0017336333
120	0x3cc82b24	0.024434634
121	0xbad4a770	-0.0016224217
122	0x3b91fdb9	0.004455295
123	0xbc2e24cf	-0.010628893
124	0xbcb5a830	-0.022174925
125	0x3d00d679	0.031454537
126	0x3af50011	0.0018692036
127	0x3b45c3d0	0.0030176528

shared_net.1.weight f4 [128]
0	0x3f7df60b	0.99203557
1	0x3f7eac1f	0.99481386
2	0x3f8077b7	1.0036534
3	0x3f7c42fd	0.98539716
4	0x3f7cc383	0.9873583
5	0x3f820c28	1.015996
6	0x3f7d8825	0.99035865
7	0x3f7eb8d0	0.9950075
8	0x3f80aa6c	1.0052009
9	0x3f7b4288	0.98148394
10	0x3f81047c	1.0079494
11	0x3f816e04	1.0111699
12	0x3f7af9a2	0.9803716
13	0x3f840296	1.0313289
14	0x3f812a56	1.0091045
15	0x3f7d6cb6	0.98994005
16	0x3f7e3a4e	0.99307716
17	0x3f810bab	1.0081686
18	0x3f7f12cd	0.9963806
19	0x3f815a93	1.0105766
20	0x3f8232df	1.0171775
21	0x3f812751	1.0090123
22	0x3f7eac14	0.9948132
23	0x3f7d52fe	0.9895476
24	0x3f80b09e	1.0053899
25	0x3f8135c1	1.0094529
26	0x3f7ef0d3	0.9958622
27	0x3f7f0713	0.9962017
28	0x3f7f9b91	0.9984675
29	0x3f7540d8	0.9580207
30	0x3f7f46c1	0.99717337
31	0x3f7b4495	0.9815152
32	0x3f809f5e	1.0048635
33	0x3f812c59	1.0091659
34	0x3f78e7af	0.9722852
35	0x3f808efd	1.0043637
36	0x3f7f89ff	0.9981994
37	0x3f7f9106	0.99830663
38	0x3f7c9d69	0.9867769
39	0x3f7c5acc	0.98576045
40	0x3f806ebb	1.0033792
41	0x3f80be9d	1.005817
42	0x3f826d62	1.0189631
43	0x3f819b0c	1.0125442
44	0x3f80ed18	1.0072355
45	0x3f80113d	1.0005261
46	0x3f80022b	1.0000662
47	0x3f7a4c68	0.97772837
48	0x3f801fb0	1.000967
49	0x3f809bac	1.0047507
50	0x3f7eba6d	0.99503213
51	0x3f80acb9	1.0052711
52	0x3f7d60c6	0.9897579
53	0x3f7dbdfb	0.9911801
54	0x3f7e9e70	0.99460506
55	0x3f800f22	1.0004618
56	0x3f800d04	1.0003972
57	0x3f80d1a1	1.0063974
58	0x3f821693	1.0163139
59	0x3f812814	1.0090356
60	0x3f7d3307	0.98905987
61	0x3f7f5f66	0.9975494
62	0x3f7d886f	0.99036306
63	0x3f81b396	1.013293
64	0x3f7e456c	0.9932468
65	0x3f80eca1	1.0072213
66	0x3f7e5d94	0.9936154
67	0x3f816e21	1.0111734
68	0x3f7cd403	0.98761004
69	0x3f827fb4	1.0195222
70	0x3f7d8539	0.99031407
71	0x3f7cdba6	0.98772657
72	0x3f7a6703	0.97813433
73	0x3f8540dd	1.041042
74	0x3f7ce49f	0.9878635
75	0x3f80f5b4	1.0074983
76	0x3f81b46f	1.0133189
77	0x3f7b3d74	0.98140645
78	0x3f8165fe	1.010925
79	0x3f7ddd14	0.99165463
80	0x3f7fa15b	0.99855584
81	0x3f7e329c	0.99295974
82	0x3f7c7b32	0.9862548
83	0x3f808330	1.0040035
84	0x3f7eaf2a	0.9948603
85	0x3f81b4ac	1.0133262
86	0x3f841ee2	1.0321925
87	0x3f7d426a	0.98929465
88	0x3f7fe2c0	0.9995537
89	0x3f80f6a4	1.0075269
90	0x3f80549b	1.002582
91	0x3f7f3b59	0.9969993
92	0x3f82292e	1.0168817
93	0x3f7d0b18	0.9884505
94	0x3f7c778b	0.9861991
95	0x3f7e8d99	0.9943481
96	0x3f804101	1.0019838
97	0x3f7d8c3f	0.99042124
98	0x3f803a37	1.0017766
99	0x3f811d5b	1.0087084
100	0x3f7e6de0	0.99386406
101	0x3f7e7129	0.9939142
102	0x3f895e0c	1.0731826
103	0x3f7de8a5	0.9918311
104	0x3f7db366	0.99101865
105	0x3f7eb31b	0.99492043
106	0x3f8087e2	1.0041468
107	0x3f809dcc	1.0048156
108	0x3f7d9591	0.99056345
109	0x3f80cbf0	1.0062237
110	0x3f816714	1.0109582
111	0x3f7c25f5	0.9849542
112	0x3f7e36e6	0.9930252
113	0x3f82fc0c	1.0233169
114	0x3f80c8fe	1.0061338
115	0x3f80c3e0	1.0059776
116	0x3f826179	1.0185996
117	0x3f81606b	1.010755
118	0x3f7e2bc5	0.99285537
119	0x3f7dbb99	0.99114376
120	0x3f80e98c	1.0071273
121	0x3f7e9e3d	0.994602
122	0x3f834f2c	1.0258536
123	0x3f8157cf	1.0104922
124	0x3f8104fe	1.0079648
125	0x3f7f90b9	0.99830204
126	0x3f7e3f87	0.99315685
127	0x3f7e34ba	0.99299204

shared_net.1.bias f4 [128]
0	0xbc07aece	-0.008281423
1	0x3c0431bb	0.008068497
2	0x3c8847fe	0.016635891
3	0x3b881e1a	0.004153979
4	0xbbca3818	-0.0061712377
5	0xbca2e197	-0.01988296
6	0xbaf1375c	-0.0018403339
7	0x3b74f9dd	0.0037380375
8	0x3c123b69	0.008925297
9	0x3bd82938	0.0065967105
10	0xbc9253b3	-0.017862177
11	0x3cac276c	0.021014892
12	0xbc201c3d	-0.0097723575
13	0xbc86320f	-0.016381292
14	0x3c2ff04a	0.010738442
15	0x3bf81bdd	0.007571681
16	0xbbac327f	-0.005255043
17	0x3c82eef7	0.015983088
18	0xbcbe3af3	-0.023221469
19	0x3a262b6c	0.0006338868
20	0x3c78dd85	0.015189533
21	0x3c9e498b	0.019322177
22	0x3c0b6cd6	0.008509835
23	0xbc6168f5	-0.013757934
24	0x3c14c0f2	0.009079205
25	0x3c31a526	0.010842597
26	0x3bcc5db8	0.006236758
27	0x3cada104	0.021194942
28	0x3c91bb2c	0.017789446
29	0xbccd1099	-0.025032328
30	0x3c2d1644	0.010564391
31	0xbcaf18e4	-0.021374173
32	0x3b926df3	0.0044686734
33	0xbc3011ff	-0.010746478
34	0x3c32bb36	0.010908892
35	0x3cd9d264	0.02658958
36	0x3bfc4813	0.0076990216
37	0x3bdabba0	0.0066751987
38	0xbc0364e7	-0.008019662
39	0x3c8a5940	0.01688826
40	0x3c022e3f	0.007945596
41	0xbc1cd15a	-0.009571398
42	0xbc4da1c8	-0.012550779
43	0xbc147271	-0.009060488
44	0xbc4b39f5	-0.012403955
45	0x3c54745b	0.012967194
46	0x3bde5145	0.0067845904
47	0xbab487db	-0.0013773398
48	0x3c5df476	0.013547054
49	0x3bd0225e	0.006351753
50	0x3ca50102	0.020142082
51	0x3c041503	0.00806165
52	0x3c01dc77	0.007926098
53	0x3d09725d	0.03355633
54	0xbba470b3	-0.0050183176
55	0x3c0192c1	0.007908524
56	0x3be67a15	0.0070335963
57	0x3adb5d87	0.0016736247
58	0x3c97b643	0.018519526
59	0xbc960472	-0.018312667
60	0x3bc912d1	0.0061362763
61	0xbbc7a5e8	-0.0060927756
62	0x3a1aafc6	0.0005900826
63	0xbc51335b	-0.012768592
64	0xbd07c65d	-0.03314816
65	0x3c56c592	0.013108628
66	0xbc4f0053	-0.012634355
67	0xbc0df918	-0.008665346
68	0x3bcbe32e	0.0062221503
69	0xbcfb3789	-0.03066613
70	0x3b5cf02b	0.0033712487
71	0xbc1a120e	-0.009403719
72	0xbcd69c64	-0.02619762
73	0x3c9e85e7	0.019350959
74	0xbc4f1e2d	-0.012641472
75	0x3c4f870a	0.012666473
76	0xbcb6dd3d	-0.022322292
77	0xbcf64e42	-0.030066613
78	0xbc7a0c3a	-0.015261704
79	0xbc7a9316	-0.015293857
80	0x3bc6a87f	0.006062567
81	0x3c1507c2	0.009096088
82	0x3b201261	0.0024425017
83	0xbcabf711	-0.020991834
84	0x3b830e23	0.003999488
85	0xbc76132e	-0.015019221
86	0x3cc22576	0.023699503
87	0x3c79006f	0.015197857
88	0xbb2221f0	-0.0024739467
89	0x3c23eff2	0.010005938
90	0xbbfdf689	-0.0077503365
91	0xbc944113	-0.018097436
92	0x3a5c1693	0.0008395698
93	0x3b15ae3d	0.002283945
94	0x3c140f2d	0.009036821
95	0x3bcf6556	0.006329219
96	0x3b435d43	0.0029810227
97	0xbb925de1	-0.0044667576
98	0x3c9353e5	0.01798434
99	0x3c467b4b	0.012114356
100	0xbbe37680	-0.0069416165
101	0x3c2e339a	0.01063242
102	0xbd1e9e19	-0.038724992
103	0x3b9ea8a7	0.0048418823
104	0x3cacd960	0.021099746
105	0x3c5b1c9b	0.013373519
106	0xbb24cf66	-0.0025148033
107	0x3c4f665d	0.012658683
108	0xbc28f3be	-0.010312019
109	0xbc658493	-0.014008659
110	0x3c29b7e9	0.010358789
111	0xbbe377e3	-0.006941782
112	0xbb5f6007	-0.0034084336
113	0xbcc8d9cc	-0.024517916
114	0xbc6ce5b4	-0.014459062
115	0x3cc0e26f	0.023545472
116	0x3cf2a9cf	0.029621987
117	0x3c86e3c6	0.016466033
118	0xbbce4d93	-0.0062958687
119	0xbb3fd4bc	-0.0029271087
120	0x3c5b0cfd	0.013369796
121	0xbb23a997	-0.002497291
122	0x3ce04e02	0.027380947
123	0xbc87887d	-0.016544575
124	0xbd030d4b	-0.0319951
125	0x3b5b6b4d	0.0033480704
126	0xbbefe7d2	-0.0073213363
127	0xbc0527b9	-0.008127146

shared_net.4.weight f4 [128, 128]
0	0x3cb3c44a	0.021944184
1	0x3dd59c85	0.10430244
2	0xbcd4f025	-0.025993416
3	0xbcf8da1b	-0.030377438
4	0xbd7be951	-0.061501805
5	0x3c9eaec7	0.01937045
6	0x3da6bea8	0.081418335
7	0x3d2cea3e	0.04221558
8	0xbe02dc00	-0.12779236
9	0x3d9db087	0.076996855
10	0x3dc0be1d	0.09411261
11	0x3cff0637	0.031130893
12	0xbc036aad	-0.008021039
13	0x3e235031	0.1594856
14	0x3e114e9e	0.14190146
15	0x3d9672d9	0.07346124
16	0xbe156554	-0.14589435
17	0x3dc49597	0.095988445
18	0xbcbfe839	-0.023426162
19	0x3e6fff2c	0.23437184
20	0xbdf8e80c	-0.121536344
21	0x3e221f4f	0.15832256
22	0x3dc6e453	0.09711518
23	0xbd401218	-0.046892256
24	0xbe3850f0	-0.17999625
25	0xbd10df49	-0.03536919
26	0x3d535c75	0.051601846
27	0xbd4a999e	-0.049462907
28	0xbd4de758	-0.050269455
29	0xbd2dfbad	-0.042476345
30	0x3c298b3c	0.0103481375
31	0x3db38ef6	0.08767502
32	0x3d58a0cc	0.052887723
33	0x3d87ed47	0.06637054
34	0x3cb5eb60	0.022206962
35	0xbe011ad3	-0.12607889
36	0x3dfc3f84	0.12316802
37	0xbdbaf1bf	-0.09128141
38	0xbd8c569f	-0.06852459
39	0xbe1558cd	-0.14584656
40	0xbe2bc2aa	-0.16773477
41	0x3c88265c	0.016619854
42	0x3a0b9091	0.0005323971
43	0x3d4b54df	0.049641486
44	0xbd2f096e	-0.042733602
45	0xbe2bc75b	-0.16775267
46	0xbde230ee	-0.11044489
47	0xbdce8471	-0.10083855
48	0x3c9e4ef6	0.01932476
49	0xbcef9f3a	-0.02925073
50	0xbd0a92da	-0.033831455
51	0x3dd83666	0.10557251
52	0x3d20d925	0.039269585
53	0x3cc62806	0.024189007
54	0xbd1f7503	-0.03892995
55	0xbd941036	-0.072296545
56	0x3c604d59	0.013690316
57	0x3d3dd06b	0.04634134
58	0xbde8b1d6	-0.113620445
59	0x3e4646b8	0.19362915
60	0x3c09ac54	0.008402903
61	0xbd67dbec	-0.05660622
62	0xbe113260	-0.14179373
63	0x3e0fdd00	0.14049149
64	0x3e89e58b	0.2693294
65	0xb91a473a	-0.00014713118
66	0xbd20289f	-0.03910124
67	0x3bebf9d0	0.007201411
68	0xbc81d28c	-0.015847467
69	0xbe21c609	-0.157982
70	0xbdfdb9a1	-0.123889215
71	0x3cf4764c	0.029841565
72	0xbd61f063	-0.05516089
73	0xbc1238c3	-0.008924666
74	0x3d96cdd3	0.073634766
75	0x3dc53053	0.09628358
76	0x3d990214	0.074710995
77	0x3d3661d3	0.044526886
78	0x3d6849b6	0.05671092
79	0xbda3da08	-0.080005705
80	0xbe0f3d09	-0.13988127
81	0x3d2b0be1	0.041759375
82	0xbc918fcf	-0.017768769
83	0x3c72ef27	0.014827526
84	0x3da7fa74	0.08202067
85	0xbd2bf4f9	-0.04198167
86	0xbe0f437a	-0.13990584
87	0xbe5f453a	-0.21803752
88	0xbdc21d06	-0.09478192
89	0xbdc17bb6	-0.09447424
90	0xbd116180	-0.035493374
91	0x3d2da039	0.04238913
92	0xbdabd533	-0.08390274
93	0xbce425e6	-0.027850103
94	0xba553157	-0.00081326574
95	0xbd84cef6	-0.06484787
96	0x3dbbfc7b	0.09179016
97	0x3d1129e5	0.035440344
98	0xbd8c0ea3	-0.06838729
99	0x3e1948c1	0.1496916
100	0xbdeea35e	-0.116522536
101	0x3d6e3d36	0.058163844
102	0xbd4c6000	-0.04989624
103	0xbc3d0260	-0.011536211
104	0x3d2b9a12	0.04189498
105	0xbd47bf14	-0.04876621
106	0xbd72584e	-0.059166245
107	0xbc4da125	-0.012550627
108	0xbb21ce01	-0.0024689438
109	0x3d951227	0.07278853
110	0x3ddc2e3c	0.10751006
111	0x3cd2755b	0.025690725
112	0x3bf203d0	0.0073857084
113	0x3d62376a	0.05522863
114	0xbe3127c6	-0.17300329
115	0x3d3c61db	0.04599176
116	0x3dce0274	0.10059062
117	0xbc52fd68	-0.0128778
118	0x3d2a6441	0.041599516
119	0xbd35b099	-0.04435787
120	0x3e048c87	0.12944232
121	0xbda92c99	-0.082604595
122	0xbdc3e180	-0.09564495
123	0xbe02b04d	-0.12762566
124	0x3d125fda	0.035735942
125	0xbd69da47	-0.05709293
126	0x3d03a9cc	0.032144353
127	0xbd92a8c6	-0.07161097
128	0xbdd22539	-0.10261006
129	0x3be033c3	0.006842108
130	0xbe7153c5	-0.23567112
131	0xbc208681	-0.009797693
132	0x3b73f061	0.0037222134
133	0x3cd49a1c	0.025952391
134	0x3d924021	0.07141138
135	0x3de40d1b	0.11135312
136	0xbd9e4155	-0.07727305
137	0x3c1bc9c0	0.00950855
138	0x3d8b7303	0.06809046
139	0x3d484886	0.04889729
140	0xbc8843da	-0.016633917
141	0x3e12988f	0.14316009
142	0xbd22089c	-0.03955899
143	0xbd87fe3b	-0.066402875
144	0x3d32e93c	0.04367946
145	0xbb87e647	-0.0041473242
146	0xbc6897c1	-0.014196337
147	0x3da5b7da	0.080917075
148	0xbd1d0a11	-0.03833968
149	0xbdce3ad7	-0.100698166
150	0x3dff393c	0.124620885
151	0x3e179360	0.14802313
152	0xbcffe19e	-0.031235512
153	0x3cdc457e	0.026888605
154	0x3d8b87b3	0.06812992
155	0x3cec8335	0.028871158
156	0xbe4087ef	-0.18801855
157	0xbc35add0	-0.011088803
158	0x3db469ef	0.08809268
159	0x3e5506a1	0.2080331
160	0xbb60ce62	-0.0034302701
161	0x3cb20c89	0.021734493
162	0x3e1da9b0	0.15396762
163	0xbe368803	-0.17825322
164	0xbd4ea7b4	-0.050452903
165	0x3d6a7659	0.05724177
166	0x3db0d7d2	0.086349145
167	0xbe171739	-0.14754952
168	0x3df81771	0.12113846
169	0xbd8361cd	-0.064151384
170	0xbde63be4	-0.11241892
171	0x3de8ee5b	0.11373588
172	0x3e07eb76	0.13273415
173	0x3cc7d833	0.024395084
174	0x3dd69585	0.10477737
175	0xbd5df459	-0.054188106
176	0x3cdd7afa	0.027036179
177	0xbddc3894	-0.10752979
178	0x3dcf5268	0.101231396
179	0xbdd0f6ec	-0.102033466
180	0x3d3c9180	0.046037197
181	0x3d7fa553	0.062413525
182	0x3e072e73	0.13201313
183	0xbd931a96	-0.07182805
184	0xbd10f71a	-0.035391904
185	0x3dcd5020	0.10025048
186	0xbdf6f077	-0.12057584
187	0xbd6e84e5	-0.058232207
188	0xbd5f1b97	-0.05446967
189	0xbd95a4a2	-0.07306792
190	0x3a804f0f	0.0009789186
191	0x3d8fa65a	0.07014151
192	0xbc6da0c4	-0.014503662
193	0xbc79110e	-0.01520182
194	0xbddb42af	-0.10706078
195	0x3d802d00	0.06258583
196	0xbd82341c	-0.06357595
197	0xbcb82ab0	-0.022481292
198	0x3de8b502	0.113626495
199	0x3bfb3319	0.0076660034
200	0x3be0eb43	0.006863983
201	0xbce2d37c	-0.027688734
202	0x3d96ab1e	0.07356857
203	0x3c753635	0.014966537
204	0x3d07bcfb	0.03313921
205	0x3d666e8a	0.056257762
206	0x3d80da9b	0.06291696
207	0xbd1f751c	-0.038930044
208	0x3db28b46	0.087179706
209	0xbddd8590	-0.10816491
210	0x3e1f9568	0.15584338
211	0x3d26ecee	0.040753298
212	0x3c9a17c6	0.018810164
213	0xbd50da6a	-0.050989546
214	0x3ba6a7e5	0.0050859326
215	0x3e2ecadb	0.1706957
216	0xbd7283e9	-0.05920783
217	0x3d4b9bfa	0.049709298
218	0x3dd96e93	0.106167935
219	0x3d3c1b62	0.04592455
220	0xbdaf3c3a	-0.08556409
221	0xbe11c56a	-0.14235464
222	0x3e067f51	0.13134505
223	0xbd2aef40	-0.041732073
224	0xbcfcf019	-0.030876206
225	0x3c89f543	0.016840583
226	0x3d147493	0.036243986
227	0xbbc45967	-0.005992103
228	0xbb9a612f	-0.004711292
229	0xbd4e1eb3	-0.050322246
230	0x3cee3f0e	0.029082801
231	0xbe047c66	-0.12938079
232	0x3defc32a	0.117071465
233	0xbdb3b4d4	-0.087747246
234	0x3d498769	0.049201403
235	0xbd20c713	-0.039252352
236	0xbce49700	-0.027904034
237	0xbdc1bf80	-0.09460354
238	0x3cd94adb	0.026524952
239	0xbd0fcb31	-0.035105888
240	0x3dbd3af1	0.09239758
241	0x3d043173	0.03227372
242	0xbda13435	-0.07871286
243	0x3d512927	0.051064637
244	0x3c5510c9	0.01300449
245	0x3cb55505	0.022135267
246	0xbd9f8984	-0.07789901
247	0xbd5e23b8	-0.054233283
248	0x3d29f63a	0.041494586
249	0xbd738118	-0.059449285
250	0x3d39b0af	0.045334514
251	0xbca9ebda	-0.020742346
252	0xbd5e04e6	-0.05420389
253	0x3d876315	0.06610695
254	0x3dd3aedd	0.10336087
255	0x3d2dd03d	0.04243492

shared_net.4.bias f4 [128]
0	0x3c98c215	0.018647233
1	0xbb5d9441	-0.003381029
2	0x3ccea186	0.025223505
3	0xb90ed794	-0.00013622484
4	0x3c94424a	0.018098015
5	0xbb81cbba	-0.0039610537
6	0xbbc40049	-0.0059814793
7	0xbb2fa6c7	-0.0026802288
8	0x3caba4b9	0.02095257
9	0x3c911b37	0.017713172
10	0x3cca1350	0.024667412
11	0x3c98005e	0.018554863
12	0xbb9833b9	-0.0046448377
13	0x3c90a928	0.017658785
14	0x3c97831e	0.018495139
15	0x3a53526e	0.0008061294
16	0x3ca18281	0.01971555
17	0x3ca1d891	0.019756587
18	0x3bb75d38	0.0055958293
19	0xba2e4ef8	-0.00066493405
20	0x3cb9bfa8	0.022674397
21	0xbcef4e32	-0.029212091
22	0x3be534f9	0.00699484
23	0x3b83e411	0.0040249904
24	0xbb4f8593	-0.003166531
25	0x3b2f031b	0.0026704732
26	0x3baa7853	0.005202332
27	0x3ca8d988	0.02061154
28	0x3c7d0852	0.015443878
29	0x3cb87fe0	0.022521913
30	0xbad1028d	-0.0015946195
31	0x3c5ca725	0.013467585
32	0x3ac60cc2	0.0015110003
33	0xbafca0c2	-0.0019273984
34	0x3c99acde	0.018759187
35	0xbacb7d8e	-0.0015525089
36	0x3ca7af68	0.020469382
37	0x3ae9f01d	0.0017848049
38	0x3b04a0fe	0.002023756
39	0x3cd83fe4	0.026397653
40	0xba8ec1cb	-0.0010891495
41	0x3c1f55a6	0.00972501
42	0xbb20df3b	-0.0024547118
43	0xb983ee72	-0.00025163923
44	0x3a655e18	0.0008749678
45	0x3ad2e862	0.0016090984
46	0x3c1b2995	0.009470363
47	0x3cae5027	0.021278454
48	0x3ca66f52	0.020316754
49	0xbb50e159	-0.00318726
50	0x3be03f5e	0.0068434915
51	0x3b55fa47	0.0032650398
52	0xbad77446	-0.001643785
53	0x3ad871ce	0.0016513409
54	0xbafac339	-0.0019131667
55	0x3c9f8c2c	0.019476019
56	0x3cef107e	0.029182669
57	0x3c873c00	0.016508102
58	0x3cb5cb27	0.022191597
59	0x3d0471c9	0.032335076
60	0x3b9ccc81	0.004785121
61	0x3ccce324	0.025010653
62	0x3c4f2afb	0.012644525
63	0x3b2c76b4	0.002631587
64	0x3a3b2d8b	0.00071402703
65	0x3b6d9bb4	0.0036256136
66	0x3cc5038f	0.024049548
67	0x3cbb1875	0.02283881
68	0x3cb1e376	0.021714907
69	0xbb937d47	-0.004501018
70	0x3cb42f6a	0.021995265
71	0x3c7d9f02	0.015479805
72	0x3b1d948e	0.0024044844
73	0x3c8a06d5	0.01684896
74	0x3b3ab98e	0.0028491947
75	0xbb143926	-0.002261707
76	0x3a0545e4	0.0005083962
77	0x3cd90a38	0.02649413
78	0x3d0e5fe6	0.034759425
79	0x3c8764d0	0.016527563
80	0x3c96e542	0.018419866
81	0x3c8a0ee0	0.016852796
82	0x3a8676d1	0.0010258799
83	0xbaa4a4c0	-0.0012561306
84	0x3c3bb5df	0.011456936
85	0xbb8b2576	-0.004246409
86	0x3cabcb5f	0.020970998
87	0xbba4bde8	-0.0050275214
88	0xba32b043	-0.0006816426
89	0x3b6444e2	0.0034831096
90	0x3b8cbabb	0.004294721
91	0x3cb41661	0.021983327
92	0x3cafa92c	0.021442972
93	0xbcb4e101	-0.022079946
94	0x3c713eea	0.014724473
95	0x3cd1c2b0	0.02560553
96	0xbc430d54	-0.011905033
97	0x3c90c253	0.017670786
98	0xb945fecd	-0.00018882305
99	0xbbb161e2	-0.00541328
100	0xbbf91670	-0.0076015517
101	0x3c8fcb49	0.017552989
102	0x3c49499b	0.012285615
103	0x3b2959e4	0.0025840933
104	0x3cd07a36	0.0254489
105	0xbb6bf729	-0.0036005473
106	0x3afbb6db	0.0019204275
107	0x3cac0842	0.021000031
108	0xbb794291	-0.0038034061
109	0x3cc6dd40	0.024275422
110	0x3cb3b6d3	0.021937763
111	0x3c9d9d4d	0.019240046
112	0x3c633df8	0.013869755
113	0x3bac3b25	0.005256074
114	0x3c980a4f	0.018559603
115	0x3c846e76	0.016165953
116	0x3aaadef1	0.0013036412
117	0x3cabb0a6	0.020958256
118	0x3d1b78aa	0.03795687
119	0x3af901d1	0.0018997734
120	0xbb44c614	-0.003002529
121	0x3ca57287	0.020196212
122	0xba637bf2	-0.0008677832
123	0x3ac67427	0.0015140817
124	0x3cbcca96	0.02304582
125	0x3a487000	0.0007646084
126	0xbb8d37b3	-0.0043096184
127	0x3cd547b9	0.026035177

shared_net.5.weight f4 [128]
0	0x3f7dacbc	0.99091697
1	0x3f80e955	1.0071207
2	0x3f8355b4	1.026053
3	0x3f808903	1.0041813
4	0x3f7eae62	0.9948484
5	0x3f7e740b	0.9939582
6	0x3f842a40	1.0325394
7	0x3f82f57c	1.0231166
8	0x3f80ab12	1.0052207
9	0x3f7fdb19	0.9994369
10	0x3f86291f	1.0481299
11	0x3f80aaec	1.0052161
12	0x3f81493a	1.0100472
13	0x3f7e51ae	0.99343383
14	0x3f7ef639	0.99594456
15	0x3f8048e5	1.0022246
16	0x3f84329c	1.0327945
17	0x3f7ed6de	0.9954661
18	0x3f810176	1.0078571
19	0x3f809e8b	1.0048383
20	0x3f7e4fc4	0.9934046
21	0x3f827308	1.0191355
22	0x3f7fad10	0.9987345
23	0x3f826910	1.0188313
24	0x3f7ee829	0.99573
25	0x3f7ea09a	0.9946381
26	0x3f825b4e	1.0184114
27	0x3f81e8fa	1.0149224
28	0x3f8227c1	1.0168382
29	0x3f7d8e39	0.9904514
30	0x3f8151c1	1.0103074
31	0x3f80548d	1.0025803
32	0x3f8102cb	1.0078977
33	0x3f7deda5	0.9919074
34	0x3f7f7d4e	0.99800575
35	0x3f7f04d5	0.9961675
36	0x3f7eb936	0.9950136
37	0x3f7e836a	0.9941927
38	0x3f7fe9c8	0.99966097
39	0x3f7f5d6c	0.99751925
40	0x3f8100eb	1.0078405
41	0x3f8576a3	1.042683
42	0x3f7fbcf0	0.9989767
43	0x3f7eb8d8	0.995008
44	0x3f812f6f	1.00926
45	0x3f80892d	1.0041863
46	0x3f812eea	1.0092442
47	0x3f7eaebc	0.99485373
48	0x3f82136c	1.0162177
49	0x3f81fcfc	1.015533
50	0x3f846f40	1.0346451
51	0x3f7fc6b2	0.9991256
52	0x3f82eaef	1.0227946
53	0x3f7f4e95	0.9972928
54	0x3f83d4cc	1.0299315
55	0x3f814cdb	1.010158
56	0x3f80b3a1	1.0054818
57	0x3f7ea8ec	0.99476504
58	0x3f81cede	1.0141256
59	0x3f831c8d	1.0243088
60	0x3f7e1f07	0.99266094
61	0x3f851434	1.039679
62	0x3f7f6912	0.997697
63	0x3f81204d	1.0087982
64	0x3f851c74	1.0399308
65	0x3f7e30e8	0.99293375
66	0x3f811afb	1.0086359
67	0x3f81ac87	1.0130776
68	0x3f80ef78	1.007308
69	0x3f8165eb	1.0109228
70	0x3f810aa2	1.008137
71	0x3f805837	1.0026921
72	0x3f8166bf	1.0109481
73	0x3f80eb21	1.0071756
74	0x3f7f6ac7	0.99772304
75	0x3f7efd1e	0.99604976
76	0x3f7e9625	0.9944785
77	0x3f813992	1.0095694
78	0x3f80be38	1.005805
79	0x3f80b8e7	1.0056428
80	0x3f80ef24	1.007298
81	0x3f7f3ae4	0.99699235
82	0x3f7f81aa	0.99807227
83	0x3f80b374	1.0054765
84	0x3f811914	1.0085778
85	0x3f820f6f	1.016096
86	0x3f812257	1.0088605
87	0x3f81a933	1.012976
88	0x3f82c10f	1.0215167
89	0x3f7f59b9	0.9974628
90	0x3f817343	1.01133
91	0x3f84c847	1.037362
92	0x3f838b17	1.0276822
93	0x3f8181a0	1.0117683
94	0x3f824197	1.0176266
95	0x3f7f2a18	0.99673605
96	0x3f8327c6	1.0246513
97	0x3f8298ee	1.020292
98	0x3f7e645f	0.99371904
99	0x3f832013	1.0244163
100	0x3f80aaae	1.0052087
101	0x3f80b643	1.0055622
102	0x3f83b940	1.0290909
103	0x3f7f8f12	0.9982768
104	0x3f815ac1	1.0105821
105	0x3f7f0ea6	0.99631727
106	0x3f7f1754	0.9964497
107	0x3f8103f2	1.0079329
108	0x3f82e23e	1.0225294
109	0x3f815fb4	1.0107331
110	0x3f815fe3	1.0107387
111	0x3f80f406	1.007447
112	0x3f80216a	1.0010197
113	0x3f7a8ec9	0.9787412
114	0x3f7f1306	0.996384
115	0x3f7f4dd5	0.9972814
116	0x3f7e44ea	0.99323905
117	0x3f805eda	1.0028946
118	0x3f7f2a43	0.9967386
119	0x3f7fcb62	0.9991971
120	0x3f7f0be8	0.9962754
121	0x3f818e38	1.0121527
122	0x3f8185c4	1.0118947
123	0x3f80da5d	1.0066639
124	0x3f844116	1.0332363
125	0x3f7da0e0	0.990736
126	0x3f857f35	1.0429446
127	0x3f7ee62a	0.9956995

shared_net.5.bias f4 [128]
0	0x3be2dc88	0.006923262
1	0xbc729364	-0.0148056485
2	0x3c635315	0.013874789
3	0xbc27a7e7	-0.010232902
4	0x3bf8feb0	0.0075987205
5	0xbc8c75fa	-0.0171461
6	0xbc82be1a	-0.015959788
7	0xbc56bc7c	-0.013106462
8	0x3c0206d4	0.007936198
9	0x3bfc500a	0.007699971
10	0x3c63f7bc	0.013914045
11	0x3c01c32e	0.00792007
12	0xbc46f4c0	-0.012143314
13	0x3bba27da	0.00568102
14	0x3c2570bb	0.010097678
15	0xbc25b082	-0.0101128835
16	0x3c4386ca	0.011933992
17	0x3c14df39	0.009086424
18	0xbbfdc9a8	-0.0077449866
19	0xbc23e8f5	-0.010004272
20	0x3c3ca85f	0.011514752
21	0xbce60b57	-0.02808158
22	0xbc07a98a	-0.008280167
23	0xbc0dee66	-0.008662796
24	0xbc5f87c3	-0.013643208
25	0xbbead46c	-0.007166436
26	0xbbb90f2f	-0.005647562
27	0x3c2a8dba	0.010409767
28	0x3cac6cac	0.021047913
29	0x3c508d8e	0.012729062
30	0xbc4107c3	-0.011781636
31	0x39c7d686	0.0003811607
32	0xbc11f565	-0.008908604
33	0xbc40febb	-0.0117794825
34	0x3c0759bb	0.0082611395
35	0xbc388cb7	-0.011264018
36	0x3c1c60c3	0.009544554
37	0xbc0060c4	-0.007835571
38	0xbbfc3be3	-0.0076975687
39	0x3c7ceeb6	0.0154377725
40	0xbc37edec	-0.011226159
41	0xbb504caf	-0.0031783988
42	0xbc452845	-0.012033527
43	0xbc1d580f	-0.009603514
44	0xbc1133ff	-0.0088624945
45	0xbc095219	-0.00838139
46	0xbb5447bd	-0.0032391392
47	0x3c2aae04	0.010417465
48	0x3bb133b5	0.0054077753
49	0xbc1f9575	-0.009740223
50	0xbb8b5e36	-0.004253174
51	0xbc09d75b	-0.008413161
52	0xbc409bd2	-0.0117559
53	0xbc099674	-0.008397687
54	0xbc4c5720	-0.012471944
55	0x3c0da804	0.008646015
56	0x3ca518f4	0.0201535
57	0x3bcb4d81	0.0062043075
58	0x3c4e9b7a	0.012610311
59	0x3cb3c40f	0.021944074
60	0xbbb2052b	-0.005432745
61	0x3c91b9e8	0.017788842
62	0x3b369ad8	0.002786329
63	0xbc22a367	-0.0099266535
64	0xbc5fc791	-0.01365842
65	0xbbc32f24	-0.0059565473
66	0x3c64c7b0	0.013963625
67	0x3c4a69ad	0.012354297
68	0x3c33fecf	0.010986044
69	0xbc6fd812	-0.0146389175
70	0x3c393645	0.011304443
71	0x3c5e097a	0.013552064
72	0xbc146e7b	-0.009059544
73	0x3bc60cf9	0.006044027
74	0xbc00cf55	-0.007861932
75	0xbc4beabf	-0.012446105
76	0xbc1b692e	-0.009485526
77	0x3c88d577	0.01670335
78	0x3ccc0ab0	0.02490744
79	0x3c02e8f2	0.007990109
80	0x3bf28023	0.007400529
81	0x3ba0e9fc	0.0049107056
82	0xbd19335a	-0.03740249
83	0xbc31f85d	-0.010862437
84	0x3c75c60f	0.015000834
85	0xbc66821a	-0.014069105
86	0x3c357757	0.011075816
87	0xbc7ae101	-0.015312434
88	0xbc5003db	-0.012696232
89	0xbbd8a026	-0.006610888
90	0xbbef4c1a	-0.007302773
91	0x3c39ab72	0.01133238
92	0x3c49e481	0.012322546
93	0xbd141bb0	-0.036159217
94	0x3be1be89	0.0068891686
95	0x3c83ede2	0.016104642
96	0xbc7d3df8	-0.015456669
97	0x3bee47cb	0.007271742
98	0xbc1df84b	-0.009641717
99	0xbc7803a3	-0.015137586
100	0xbc8d0e98	-0.017218873
101	0x3bdd7dc4	0.006759377
102	0xbbd27b97	-0.0064234245
103	0xbbe7151c	-0.007052077
104	0x3c69d435	0.0142717855
105	0xbc7bef3b	-0.015376861
106	0xbbccbd09	-0.0062481207
107	0x3c2b748a	0.010464797
108	0xbc506a1b	-0.01272061
109	0x3c63a68b	0.013894687
110	0x3c2e1fde	0.010627715
111	0x3c0dcff4	0.008655537
112	0x3b4bfe80	0.0031127036
113	0xbb7a23fc	-0.003816842
114	0x3c117785	0.008878593
115	0x3b9828db	0.004643542
116	0xbc0982d6	-0.00839301
117	0x3c2f705d	0.010707942
118	0x3cdf8a16	0.027287524
119	0xbc06894a	-0.008211443
120	0xbc4504d4	-0.012025077
121	0x3c19354b	0.009351085
122	0xbc2b9396	-0.010472199
123	0xbc0d79dc	-0.008635011
124	0x3c62715f	0.013820975
125	0xbc0cd6e8	-0.0085961595
126	0xbc64d00f	-0.013965621
127	0x3c4902e7	0.012268758

soc_head.0.weight f4 [64, 128]
0	0x3e71c83b	0.23611538
1	0x3bdaaac8	0.0066731907
2	0xbd10f962	-0.03539408
3	0xbcaa474a	-0.020785946
4	0xbdb51de8	-0.08843595
5	0x3d34722f	0.044054206
6	0x3cee89b3	0.029118394
7	0xbde0e747	-0.10981613
8	0x3de3eb59	0.111288734
9	0xbc8aab3a	-0.01692735
10	0xbe368cee	-0.17827198
11	0xbcb16d2b	-0.0216585
12	0xbe0766f7	-0.13222872
13	0x3d099a57	0.033594456
14	0xbc78f619	-0.015195393
15	0xbddd8de0	-0.10818076
16	0xbd89790c	-0.06712541
17	0xbe29483b	-0.1653146
18	0xbd80a3c7	-0.06281238
19	0xbbcd3e83	-0.0062635555
20	0xbc354f00	-0.011066198
21	0x3dc5c378	0.09656423
22	0x3e08ef91	0.13372637
23	0xbe293c79	-0.16526975
24	0x3da45b49	0.08025224
25	0x3c6b4edb	0.014362062
26	0xbd1d5d31	-0.038418952
27	0xbd5d8f51	-0.054091755
28	0xbd140361	-0.036136035
29	0xbd2893fe	-0.04115676
30	0xbdd68e57	-0.10476368
31	0xbc4807f8	-0.012208931
32	0x3deaf3cb	0.11472281
33	0xbc62c1a8	-0.013840117
34	0x3dcc8d9f	0.099879496
35	0xbc470bef	-0.012148841
36	0x3daf8c82	0.085717216
37	0x3de478f1	0.1115588
38	0x3c1371c0	0.008999288
39	0x3e1bfd41	0.15233327
40	0x3cc74f85	0.02432991
41	0xbd6c7dbb	-0.057737093
42	0x3ab925ef	0.0014125685
43	0xbd87d255	-0.066319145
44	0xbd717562	-0.058949836
45	0xbe3fac66	-0.18718109
46	0xbdd06a46	-0.1017652
47	0x3d3018a9	0.042992268
48	0x3db65ede	0.08904813
49	0x3d2b3701	0.041800503
50	0xbd8bc126	-0.068239495
51	0x3cb71cd1	0.022352608
52	0x3da5aaa2	0.08089186
53	0xbd250083	-0.04028369
54	0x3dfcc74b	0.123426996
55	0x3d7372aa	0.059435524
56	0x3d68c1aa	0.056825317
57	0x3e4f6d5a	0.20256558
58	0x3d9ad275	0.07559673
59	0x3dfab17f	0.12240886
60	0x3dad609b	0.08465692
61	0x3c1d957a	0.0096181575
62	0x3de8a796	0.113600895
63	0xbe383f9f	-0.1799302
64	0xbdca3f65	-0.09875373
65	0xbd8a6ec3	-0.06759407
66	0xbc6b3d9a	-0.014357949
67	0x3d8b928f	0.06815063
68	0x3cb8ae79	0.022544133
69	0x3e2a7610	0.166466
70	0x3df36255	0.1188399
71	0xbe9e51ed	-0.3092188
72	0x3d24e520	0.040257573
73	0xbded0f38	-0.11575168
74	0xbd847a3a	-0.06468625
75	0xbc0d8ab8	-0.00863903
76	0xbd17f25a	-0.03709636
77	0x3bd0bb61	0.0063699936
78	0xbd8b4b95	-0.068015255
79	0x3e53b4f3	0.20674495
80	0xbd9132c8	-0.07089764
81	0x3d9ed21c	0.07754919
82	0x3e796069	0.24353184
83	0x3e0d9e90	0.13830018
84	0x3e226e12	0.15862301
85	0x3c8085cc	0.0156888
86	0xbda6d158	-0.08145398
87	0x3d43bbc9	0.047786508
88	0xbe0d1279	-0.13776578
89	0x3ccfa4d8	0.025347158
90	0x3e0a5e98	0.13512647
91	0xbc9b5449	-0.018961089
92	0xbdd1879d	-0.10230944
93	0xbd4c95ed	-0.049947668
94	0xbdac29a5	-0.084063806
95	0x3d942af7	0.072347574
96	0xbd9fa7d4	-0.077956825
97	0xbcd4047e	-0.025881048
98	0x3cee8205	0.029114733
99	0xbd5b0804	-0.05347444
100	0x3e817cf8	0.25290656
101	0xbd588931	-0.05286521
102	0x3d0f2c44	0.034954324
103	0xbc8c1fe5	-0.017105052
104	0xbce40f01	-0.027839186
105	0x3e0bd5bd	0.13655753
106	0x3d3dcabd	0.046335924
107	0x3dd974de	0.10617994
108	0xbbd81e01	-0.0065953736
109	0xbd9fa708	-0.077955306
110	0x3d396860	0.045265555
111	0x3ca3b271	0.019982548
112	0x3d8a5ccb	0.0675598
113	0x3d518cce	0.051159672
114	0xbd4b384e	-0.049614243
115	0x3da3ebaa	0.08003934
116	0xbcd9f5da	-0.026606489
117	0x3e486a9b	0.19571917
118	0xbccbbd89	-0.02487065
119	0x3e0deb65	0.13859327
120	0xbdfe7318	-0.12424296
121	0x3d8ac3d2	0.06775631
122	0x3c9f95d7	0.019480629
123	0x3cd266a2	0.025683705
124	0x3d092e8a	0.03349165
125	0xbda9bdb3	-0.082881354
126	0xbd883743	-0.06651165
127	0x3db803ad	0.08985076
128	0x3e559048	0.2085582
129	0xbe0c5097	-0.13702618
130	0x3e323b9b	0.1740555
131	0xbcf90d32	-0.0304018
132	0x3d55df04	0.052214637
133	0xbda0f220	-0.07858682
134	0xbc2d1234	-0.010563422
135	0x3c98de21	0.018660607
136	0x3e3d7fb5	0.18505748
137	0x3c3cb248	0.011517115
138	0x3d96886c	0.07350239
139	0x3cacbabf	0.021085141
140	0x3df67a4d	0.12035046
141	0xbd822449	-0.06354577
142	0xbb995cec	-0.0046802666
143	0x3e008e3f	0.12554263
144	0xbd1f594c	-0.03890352
145	0x3e6340f9	0.22192754
146	0x3da37ee1	0.079831846
147	0x3d030e42	0.03199602
148	0xbcd1a390	-0.025590688
149	0xbd939ed5	-0.07208029
150	0xbda58079	-0.08081145
151	0x3d0f6820	0.03501141
152	0x3c045039	0.008075767
153	0x3d97e799	0.074172206
154	0x3bd1b7ec	0.006400099
155	0xbd81a2e7	-0.06329899
156	0x3de507be	0.11183117
157	0x3d8dabf0	0.0691756
158	0xbdac3fc6	-0.08410601
159	0x3d670029	0.056396637
160	0x3dc9d121	0.09854341
161	0x3dafd71f	0.08585953
162	0xbca48499	-0.020082759
163	0x3df91627	0.12162428
164	0x3e300c6b	0.17192237
165	0x3d8c1364	0.06839636
166	0x3ae485a5	0.0017434849
167	0x3d9c29bd	0.076251484
168	0xbc873a1f	-0.016507206
169	0xbd7d4c66	-0.061840437
170	0xbd948e45	-0.07253698
171	0x3dab984e	0.08378659
172	0x3e390403	0.18067937
173	0xbd86dbeb	-0.06584915
174	0xbd9b99e9	-0.075977154
175	0xbc430cd0	-0.01190491
176	0xbd9536c9	-0.0728584
177	0xbddc7484	-0.10764411
178	0xbd8b8c43	-0.06813862
179	0x3dd8934e	0.10574971
180	0x3da7f652	0.08201279
181	0x3c4c7b51	0.012480573
182	0x3df40d22	0.119165674
183	0x3db75fe6	0.08953838
184	0xbc8afe30	-0.01696691
185	0xbd819fca	-0.063293055
186	0x3caa254a	0.020769734
187	0xbd4f5682	-0.05061961
188	0xbd18dddf	-0.037320968
189	0x3bc6dba6	0.0060686646
190	0x3c9428f6	0.018085938
191	0x3cc52903	0.024067407
192	0x3e46e7c6	0.19424352
193	0xbd39dfd6	-0.045379482
194	0xbe2230b9	-0.15838899
195	0xbe0eb0cf	-0.13934635
196	0xbd33405b	-0.043762546
197	0xbd0ff7ca	-0.03514842
198	0x3d015fb1	0.0315854
199	0xbdea272a	-0.11433251
200	0x3d3c5abe	0.045984976
201	0xbba7a312	-0.005115875
202	0x3d18231a	0.03714285
203	0x3e232fb2	0.15936163
204	0xbe345c95	-0.17613442
205	0xbd52380e	-0.05132299
206	0xbd749525	-0.059712548
207	0x3d948e03	0.07253649
208	0xbda75003	-0.08169558
209	0x3dcf4029	0.101196595
210	0x3d0e5894	0.034752443
211	0xbdd25c4f	-0.10271513
212	0xbe56e5fa	-0.20986167
213	0x3b7ce82a	0.003859053
214	0x3e52d74e	0.20589945
215	0x3bb8fa52	0.005645075
216	0x3dfc413d	0.12317131
217	0xbcdc4133	-0.026886558
218	0x3d4fa5f9	0.050695393
219	0xbe0c7818	-0.13717687
220	0xbe19db0b	-0.15024965
221	0xbbc64d58	-0.0060517006
222	0xbe03ee7d	-0.12883945
223	0xbde9dc6e	-0.11418997
224	0x3d8955f1	0.06705845
225	0x3d85755b	0.065165244
226	0xbdc63629	-0.09678299
227	0xbd2d44cc	-0.042301938
228	0xbcf10811	-0.029422792
229	0xbe198838	-0.1499337
230	0xbdb495e7	-0.08817654
231	0x3da2a38c	0.0794135
232	0xbdac4372	-0.08411302
233	0x3d7e10cc	0.062027737
234	0x3de0e21a	0.109806255
235	0xbc7dee83	-0.01549876
236	0xbe0094ed	-0.1255681
237	0xbda5eae7	-0.08101445
238	0x3d827fea	0.06372054
239	0xbdbb1284	-0.09134391
240	0xbd53bfb6	-0.0516965
241	0xbdf9a6de	-0.121900305
242	0x3c2e1dbc	0.010627206
243	0x3d8b57e9	0.06803877
244	0xbc451cdd	-0.012030807
245	0xbd352c68	-0.044231802
246	0xbb9d51fa	-0.004801032
247	0x3cb4b704	0.022059925
248	0x3be91a67	0.007113743
249	0x3e17a5cf	0.14809345
250	0x3db1309f	0.08651852
251	0x3e197d80	0.1498928
252	0xbe50e5ef	-0.20400213
253	0xbd7c2ddb	-0.06156717
254	0x3d3c91bd	0.046037424
255	0x3c286003	0.010276797

soc_head.0.bias f4 [64]
0	0xbb862782	-0.004094065
1	0xbb5e1c79	-0.0033891483
2	0x3ca8607d	0.020553822
3	0x3ca649b3	0.020298814
4	0xbad6126a	-0.0016332392
5	0x3ca6784b	0.020321032
6	0x3aa75f9a	0.001276958
7	0x3ca15b58	0.019696876
8	0x3a03c876	0.00050271244
9	0x3ca4f9d2	0.020138655
10	0x3c9f7be6	0.019468259
11	0x3a0cb962	0.00053682004
12	0x3a1b32bc	0.0005920341
13	0xba89de99	-0.001051861
14	0x3c9eb342	0.019372586
15	0x39278941	0.00015977492
16	0x39904500	0.0002751723
17	0xb9850b87	-0.00025376325
18	0x3c9cb9c6	0.019131552
19	0xba49a3a6	-0.0007691927
20	0xba8d72ad	-0.0010791622
21	0x3c995548	0.018717423
22	0x3aad2715	0.00132105
23	0x3998e21d	0.00029160167
24	0x3b27f1d0	0.002562631
25	0xbb43a1e9	-0.0029851145
26	0x3ca6c477	0.020357354
27	0x3ca6a9a8	0.02034457
28	0x3c9141f3	0.017731642
29	0x3cb7b87e	0.02242684
30	0x3ac0f3e6	0.0014721125
31	0xba2904e8	-0.00064475695
32	0x3951f874	0.00020024349
33	0x39834b8d	0.00025042557
34	0x39c825a4	0.00038175017
35	0x3ca0538f	0.019571094
36	0x398555ef	0.00025431762
37	0xba70460f	-0.0009165713
38	0x3c9ab35e	0.018884357
39	0x3c9bd7b3	0.019023752
40	0x3c9ae202	0.018906597
41	0x3ca439e3	0.020047134
42	0x3a3402df	0.0006866883
43	0x3ccbf5f2	0.02489755
44	0x39d9b4fc	0.0004152431
45	0xba5383b8	-0.0008068639
46	0x3c9f9379	0.0194795
47	0x3ca3e7d8	0.020008013
48	0x3ca19fad	0.01972946
49	0x3ca01232	0.019539926
50	0x3caffd80	0.021483183
51	0xbaab33b4	-0.0013061673
52	0x3c931beb	0.017957648
53	0xba3b6d9f	-0.00071498187
54	0x3cae0ff8	0.021247849
55	0xba500559	-0.0007935367
56	0xbb69941d	-0.003564126
57	0xb93ae72f	-0.00017824465
58	0x3ca9d786	0.020732652
59	0x3a386821	0.00070345594
60	0x3ca177ed	0.019710505
61	0xb9e39b71	-0.00043412627
62	0x3c9e1a71	0.019299718
63	0x3caba74b	0.020953795

soc_head.2.weight f4 [1, 64]
0	0x3c286059	0.010276877
1	0x3d45308a	0.048141994
2	0xbe56924a	-0.20954242
3	0xbe0a5fb0	-0.13513064
4	0x3dd42faa	0.10360654
5	0xbdbd1e0d	-0.09234247
6	0x3dae851c	0.08521482
7	0xbd49ffd5	-0.049316246
8	0x3df9ba93	0.12193789
9	0xbe17cdf3	-0.14824657
10	0xbe41cd7c	-0.18926042
11	0x3e8e5651	0.2780023
12	0x3d493d22	0.049130566
13	0x3e90fc10	0.28317308
14	0xbddf0dc0	-0.108912945
15	0x3e2bddf2	0.16783884
16	0x3eb14eff	0.34630582
17	0x3e6eb0b2	0.23309591
18	0xbe091666	-0.1338745
19	0x3eecd8fd	0.462593
20	0x3e6d8995	0.23197015
21	0xbd95535e	-0.07291292
22	0x3ec32866	0.3811676
23	0x3e2578e4	0.16159397
24	0x3cfa3c87	0.03054644
25	0x3d5f1db5	0.05447169
26	0xbdb3bf25	-0.08776692
27	0xbde03670	-0.10947883
28	0xbd4595cb	-0.048238557
29	0xbe0be7a7	-0.13662587
30	0x3e0461e9	0.12927975
31	0x3d12193c	0.035668597
32	0x3e021ae9	0.12705578
33	0x3e902728	0.28154874
34	0x3d4673f1	0.048450414
35	0xbd5848a6	-0.052803658
36	0x3e312456	0.17299017
37	0x3d3b7de9	0.045774374
38	0xbd981cf9	-0.07427401
39	0xbeb213c1	-0.34780696
40	0xbebd3998	-0.36958003
41	0xbd325892	-0.0435415
42	0x3d33edfd	0.043928135
43	0xbc929aa0	-0.017895997
44	0x3e0a5cec	0.1351201
45	0x3e95dcc5	0.29269996
46	0xbe257751	-0.16158797
47	0xbe083a10	-0.13303399
48	0xbcd28698	-0.025698945
49	0xbdf8b7f6	-0.12144463
50	0xbe564243	-0.20923714
51	0x3df81ebd	0.12115238
52	0xbea3429d	-0.3188676
53	0x3d9d521a	0.07681675
54	0xbd24695e	-0.04013955
55	0x3db1c258	0.08679646
56	0x3df9f4cc	0.122048944
57	0x3dc4a60f	0.09601986
58	0xbd6cf944	-0.057854906
59	0x3da1bb4e	0.07897054
60	0xbd7d6166	-0.061860465
61	0x3e20167c	0.15633577
62	0xbe477b7b	-0.19480698
63	0xbe3e03c6	-0.18556127
