Electro/new/nasa_b0005_pinn_best.pth (torch, 108713 bytes, 11 tensors)

feature_net.0.weight f4 [128, 3]
-0.027556976 -0.021109408 0.022443736 0.13895191 0.022432279 0.05693505 0.03540006 0.017030843
0.35558474 -0.18649687 0.22619711 -0.15875332 -0.083614044 -0.026409565 -0.049758296 0.06306971
0.26921374 -0.3053942 -0.010450359 -0.0370336 0.07210884 -0.07246929 -0.09879849 0.1566561
-0.017962411 0.1132959 0.12601696 0.034444496 0.15969862 0.028755838 0.35330853 0.0048793964
-0.029631862 -0.21412471 0.07710195 -0.014282705 -0.039672848 0.06820007 -0.07819649 0.013053394
0.12854223 5.6341014e-05 -0.054406717 0.24982402 0.04398491 -0.013442856 0.008909347 -0.071977034
0.19980712 -0.08393695 0.025331592 0.20299484 -0.13570416 -0.21522574 -0.024504174 0.10559645
0.21099184 -0.093554184 -0.13422735 0.082103 -0.07448077 -0.071162246 -0.15471467 -0.012106542
-0.04057536 0.026065068 -0.0034470393 -0.0026837343 0.045851406 0.104371905 0.17210488 -0.07381103
0.154304 -0.22390795 0.15720078 0.097068675 0.0016982909 0.14102203 -0.045755673 0.08798825
0.04154838 0.077374406 0.026728766 0.01627805 -0.17950769 -0.1198774 0.11074012 -0.12300885
0.017189663 0.018488707 -0.10626015 0.04987362 0.19854072 -0.0773587 -0.14467543 0.10523378
-0.025077479 0.07077195 0.049858544 0.11419677 -0.014562211 -0.08670664 -0.12077329 0.029281864
-0.1039218 0.14168563 -0.013131258 0.057443425 -0.038576696 0.027745787 0.1025323 -0.042675383
-0.1467466 -0.0017808308 -0.07757082 0.071267776 -0.13627163 0.28090948 -0.19774838 -0.26054913
0.22095658 -0.12877476 -0.022855587 -0.17224412 -0.011797623 -0.032801233 0.18976593 -0.084549285
0.014691927 -0.10362464 -0.07108203 0.010326396 -0.032880872 -0.010455218 -0.09208307 -0.107543625
0.0025221289 -0.092538364 -0.022867028 0.07653128 0.15180953 0.11166852 -0.058914635 0.07663242
-0.02129501 -0.074894205 0.16441831 -0.22658907 -0.039139934 0.0777802 0.09546719 0.056753997
0.10116798 0.08275921 0.20281951 -0.11141177 0.0769159 -0.17582981 0.118292905 0.11811367
0.00876725 0.09677281 -0.16115049 0.021604434 0.20946491 0.10288609 -0.04315834 0.038264308
-0.11806818 -0.14681591 -0.24333295 0.048362467 -0.19733486 -0.09613264 0.1364338 0.024869319
0.1494342 -0.010096254 -0.035788953 -0.04922922 -0.1544984 -0.029756477 0.071370296 0.06000426
0.22011642 -0.049157053 -0.03691627 0.029044107 -0.12637039 0.13632219 -0.07331342 0.14295888
-0.06341271 -0.1408398 0.08535766 0.02787762 0.11160344 0.22319525 0.2609972 0.024179325
0.21422477 0.21880962 0.16623732 -0.20555422 0.2069045 -0.18749906 0.22988775 -0.058932204
-0.15568762 0.21844979 0.03741818 0.18338367 0.111520864 -0.012872157 -0.33306795 -0.09266414
-0.042506278 0.140019 -0.15438457 0.063626766 -0.15400076 -0.10717835 0.004107073 0.26491204
0.12850574 -0.009414588 -0.03760146 -0.010448882 0.106210254 -0.008408735 0.17500904 -0.026455276
0.14751542 0.09797946 0.061165445 -0.026608657 0.05418826 0.07115752 -0.07420627 0.0155461775
0.13383852 -0.033692062 -0.10341286 -0.14479235 -0.111867264 0.19756871 0.24215539 0.048885092
-0.2398386 -0.101026475 0.03544272 -0.09995805 0.12917073 -0.22332016 0.0615604 -0.12298055
00000000: 2bbf e1bc a3ed acbc eddb b73c 6949 0e3e
00000010: e6c3 b73c ba34 693d a7ff 103d 4484 8b3c
00000020: 340f b63e 09f9 3ebe 37a0 673e 3b90 22be
00000030: d73d abbd df58 d8bc 5bcf 4bbd b12a 813d
00000040: 62d6 893e a15c 9cbe fc37 2bbc 8bb0 17bd
00000050: cdad 933d c76a 94bd dd56 cabd 756a 203e
00000060: e825 93bc ae07 e83d 970a 013e ac15 0d3d
00000070: 0988 233e 5d91 eb3c dbe4 b43e 58e3 9f3b
00000080: 85be f2bc 8243 5bbe a1e7 9d3d 0202 6abc
00000090: ff7f 22bd 7aac 8b3d 7b25 a0bd e7dd 553c
000000a0: 93a0 033e b44f 6c38 94d9 5ebd ded1 7f3e
000000b0: 8529 343d 6d3f 5cbc 82f8 113c b268 93bd
000000c0: 3d9a 4c3e 23e7 abbd 3384 cf3c e1dd 4f3e
000000d0: 08f6 0abe 2364 5cbe fabc c8bc f442 d83d
000000e0: 3f0e 583e 5699 bfbd e572 09be 9e25 a83d
000000f0: 6089 98bd 83bd 91bd 866d 1ebe 845a 46bc
00000100: 5932 26bd 6986 d53c b9e7 61bb 97e1 2fbb
00000110: afce 3b3d f0c0 d53d 433c 303e 3d2a 97bd
00000120: de01 1e3e 2048 65be 3ef9 203e f1cb c63d
00000130: 3099 de3a 1468 103e 4d6a 3bbd 2f33 b43d
00000140: a22e 2a3d 7976 9e3d 49f6 da3c 8c59 853c
00000150: ddd0 37be 4882 f5bd b7cb e23d 10ec fbbd
00000160: 56d1 8c3c a175 973c ec9e d9bd 4848 4c3d
00000170: 424e 4b3e 3d6e 9ebd cc25 14be cf84 d73d
00000180: 496f cdbc e2f0 903d 7938 4c3d ffdf e93d
00000190: 5796 6ebc 4093 b1bd fd57 f7bd 85e0 ef3c
000001a0: f4d4 d4bd 0a16 113e 7d24 57bc cc49 6b3d
000001b0: 9902 1ebd 224b e33c 74fc d13d 62cc 2ebd
000001c0: be44 16be c46a e9ba 73dd 9ebd d7f4 913d
000001d0: ca8a 0bbe 5ed3 8f3e 8d7e 4abe b266 85be
000001e0: 7142 623e 88dd 03be a43b bbbc c360 30be
000001f0: d14a 41bc 965a 06bd 0052 423e 2d28 adbd
00000200: 68b6 703c 2839 d4bd 7593 91bd 0b30 293c
00000210: 18ae 06bd 5d4c 2bbc 0c96 bcbd d53f dcbd
00000220: 4d4a 253b c184 bdbd a253 bbbc 6fbc 9c3d
00000230: f573 1b3e 77b2 e43d 7950 71bd 75f1 9c3d
00000240: df72 aebc 2262 99bd 465d 283e f706 68be
00000250: 3251 20bd 3a4b 9f3d 4d84 c33d e176 683d
00000260: 2831 cf3d a97d a93d ebaf 4f3e db2b e4bd
00000270: 1586 9d3d bb0c 34be 8d43 f23d 94e5 f13d
00000280: 83a4 0f3c d330 c63d a204 25be c8fb b03c
00000290: f87d 563e f1b5 d23d cdc6 30bd 09bb 1c3d
000002a0: bbcd f1bd e956 16be 462c 79be b917 463d
000002b0: 2612 4abe 31e1 c4bd 4db5 0b3e beba cb3c
000002c0: 4705 193e c26a 25bc 7097 12bd 94a4 49bd
000002d0: d434 1ebe dbc3 f3bc 972a 923d 07c7 753d
000002e0: 3366 613e e858 49bd 8435 17bd e8ed ed3c
000002f0: 3d67 01be 0b98 0b3e 5925 96bd d063 123e
00000300: 86de 81bd 4f38 10be ffcf ae3d 9b5f e43c
00000310: 5890 e43d 4c8d 643e 6da1 853e b813 c63c
00000320: bd5d 5b3e a10f 603e 1e3a 2a3e ce7c 52be
00000330: c6de 533e c1ff 3fbe b267 6b3e e562 71bd
00000340: 936c 1fbe 4db1 5f3e ce43 193d eec8 3b3e
00000350: 0d65 e43d bde5 52bc e287 aabe b2c6 bdbd
00000360: 101b 2ebd 2461 0f3e fd16 1ebe c04e 823d
00000370: 60b2 1dbe 5380 dbbd a094 863b 8da2 873e
00000380: 0297 033e a53f 1abc fd03 1abd ca31 2bbc
00000390: c384 d93d cac4 09bc 9235 333e bcb8 d8bc
000003a0: 480e 173e 75a9 c83d 9e88 7a3d 66fa d9bc
000003b0: 82f4 5d3d 09bb 913d 75f9 97bd 65b5 7e3c
000003c0: f70c 093e b000 0abd 1fca d3bd 7244 14be
000003d0: aa1a e5bd 744f 4a3e 95f7 773e bc3b 483d
000003e0: 4098 75be f8e6 cebd 632c 113d ceb6 ccbd
000003f0: 5545 043e 0aae 64be c226 7c3d 3add fbbd

feature_net.0.bias f4 [128]
-0.008869684 0.029617134 -0.015808104 0.0135106705 0.0136785 0.0007102896 -0.01152886 -0.005829844
-0.009756158 0.031332217 0.03623048 0.032507468 0.0241599 0.0034781536 0.0064474433 -0.0077044265
0.0053601624 0.015641639 0.025187733 -0.008217588 0.033147454 0.030964456 -0.02798623 0.028575273
0.02325042 -0.010707656 -0.0106367795 0.034198686 -0.008470686 -0.014421653 -0.011139992 0.022078957
-0.010156773 -0.0084040705 -0.009826875 0.034187395 0.031338368 -0.010920298 -0.004857152 0.02547329
0.030021407 -0.0200921 -0.0065843547 -0.010460926 0.03142032 -0.011764662 -0.0005579708 0.02866421
0.029822629 -0.021952393 0.00024293945 -0.004320967 0.015395793 0.00047125874 0.035363305 0.030893426
0.025117623 0.026672965 0.029446939 -0.0120699275 -0.014086668 0.00077181647 0.03991167 -0.0127416
-0.005003851 -0.011696427 -0.0200861 0.02423673 0.022391293 -0.0028325727 0.0035241733 0.006346684
0.028745512 -0.00065318734 0.004902711 -0.019445425 0.027455645 -0.0020080286 0.03320716 -0.0081383465
0.040322606 -0.0032108077 -0.011901311 0.027056912 0.008288626 -0.0008323043 -0.02165253 0.02080244
-0.004182495 0.035092264 -0.027366217 0.0021118573 0.04058466 0.033261914 0.03331592 0.023763202
-0.011032404 -0.016494742 0.02601883 -0.012451151 -0.0071868794 0.029643392 0.023454426 0.028849
0.006259962 -0.011808541 -0.010865415 0.02530381 0.0212767 -0.010227516 -0.010904411 0.01211026
-0.000781023 0.030533925 -0.0064182677 -0.010591362 -0.010226484 0.026167687 0.018158263 0.028179107
0.026517631 -0.009304018 0.041782063 0.03074524 0.0065862276 -0.014188254 0.028321661 -0.016434219
00000000: 2752 11bc a29f f23c ff7f 81bc dc5b 5d3c
00000010: ca1b 603c ba32 3a3a 8be3 3cbc 4708 bfbb
00000020: 4bd8 1fbc 3656 003d 6966 143d 8d26 053d
00000030: fcea c53c bcf1 633b 1345 d33b 6a75 fcbb
00000040: 4da4 af3b e522 803c 8156 ce3c 10a3 06bc
00000050: a0c5 073d 2ca9 fd3c 6143 e5bc b116 ea3c
00000060: aa77 be3c 2a6f 2fbc e345 2ebc ec13 0c3d
00000070: a2c8 0abc cc48 6cbc 8384 36bc eede b43c
00000080: 9868 26bc 3ab1 09bc e700 21bc 1508 0c3d
00000090: a95c 003d 0deb 32bc be28 9fbb 5cad d03c
000000a0: 74ef f53c 3098 a4bc 92c1 d7bb 4e64 2bbc
000000b0: 98b2 003d 92c0 40bc c944 12ba 35d1 ea3c
000000c0: 964e f43c 81d5 b3bc 90bd 7e39 e696 8dbb
000000d0: a33e 7c3c 4713 f739 1dd9 103d 3614 fd3c
000000e0: 79c3 cd3c 4381 da3c b53a f13c f2c0 45bc
000000f0: c5cb 66bc ba53 4a3a 6b7a 233d 25c2 50bc
00000100: 58f7 a3bb 5fa2 3fbc 9b8b a4bc 1b8c c63c
00000110: f26d b73c afa2 39bb d1f5 663b d8f7 cf3b
00000120: b57b eb3c a93a 2bba eca6 a03b 034c 9fbc
00000130: a9ea e03c 2199 03bb 3b04 083d b356 05bc
00000140: 5129 253d 6a6c 52bb b7fd 42bc 75a6 dd3c
00000150: 04cd 073c ff2e 5aba a660 b1bc e169 aa3c
00000160: 500d 89bb e8bc 0f3d 1e2f e0bc 1667 0a3b
00000170: 1a3c 263d a53d 083d 4676 083d 0cab c23c
00000180: 42c1 34bc fb1f 87bc 7125 d53c eaff 4bbc
00000190: ea7f ebbb b3d6 f23c 7f23 c03c bd54 ec3c
000001a0: 5e20 cd3b 9c78 41bc db04 32bc f049 cf3c
000001b0: 794c ae3c 5091 27bc 6aa8 32bc 1d6a 463c
000001c0: 91bd 4cba 4822 fa3c 5550 d2bb 6487 2dbc
000001d0: fc8c 27bc 9e5d d63c a3c0 943c dfd7 e63c
000001e0: 813b d93c e16f 18bc ab23 2b3d 71dd fb3c
000001f0: 48d1 d73b da75 68bc d402 e83c 0ea1 86bc

feature_net.1.weight f4 [128]
1.0119786 1.0129282 1.0133337 0.9903094 1.0011775 1.0056528 1.0029749 0.9883322
0.9744242 0.9802176 1.0277127 0.9839385 1.0059048 0.9853304 0.9903983 1.0032083
0.99832124 0.97996736 0.9814872 1.0009035 0.9996818 0.980944 1.0440738 0.989591
0.98581755 1.0261778 0.9961267 1.0177221 0.99341685 1.0213068 0.9984971 0.9984374
0.99977934 1.0007632 1.0020185 1.0249108 1.0071721 0.98867077 0.98831505 0.97286165
0.97854984 1.0219954 0.9748263 1.0066792 1.0221398 1.0103223 0.99740237 1.0044655
0.9907276 1.015802 0.9820036 0.98229885 0.9920656 0.99032706 1.0228038 1.0201701
0.988778 0.9822837 0.9913885 1.0125299 1.006231 0.9900299 1.0054914 1.0014782
0.99672246 0.99297243 1.0210675 0.98660713 1.0091373 0.9839914 0.9855377 0.9842468
0.9897454 0.9758512 0.993668 1.0260848 0.99635077 0.98408276 1.0343543 1.0005598
0.99368256 0.9727896 0.9932621 0.9914612 0.9908554 0.99513555 1.0035084 1.0059712
0.98990846 1.0183166 1.0395367 0.98098886 1.055931 1.0121773 0.98397315 0.9833767
0.99500716 1.015292 0.985139 0.98694414 0.99787027 1.0109258 0.992928 1.0206553
0.98937714 0.98575413 0.9938465 0.99424183 0.9745394 1.0192161 1.0068654 0.98051316
0.9788075 0.9877872 0.9866334 0.9925985 1.0065612 0.9896488 0.9845193 0.98233986
0.99763644 1.0059277 0.99729264 0.9995955 0.99223775 1.0250936 0.9943547 0.9940949
00000000: 8488 813f a2a7 813f ebb4 813f eb84 7d3f
00000010: 9626 803f 3bb9 803f 7b61 803f 5703 7d3f
00000020: dd73 793f 8aef 7a3f 178c 833f 65e3 7b3f
00000030: 7dc1 803f 9d3e 7c3f be8a 7d3f 2169 803f
00000040: fb91 7f3f 24df 7a3f bf42 7b3f 9b1d 803f
00000050: 25eb 7f3f 251f 7b3f 36a4 853f d655 7d3f
00000060: 8a5e 7c3f cb59 833f 2902 7f3f b844 823f
00000070: 9150 7e3f 2eba 823f 829d 7f3f 9899 7f3f
00000080: 8af1 7f3f 0219 803f 2442 803f 4730 833f
00000090: 04eb 803f 8719 7d3f 3702 7d3f 760d 793f
000000a0: 3e82 7a3f bfd0 823f 378e 793f ddda 803f
000000b0: 7ad5 823f 3e52 813f c355 7f3f 5392 803f
000000c0: 53a0 7d3f cd05 823f 9764 7b3f f077 7b3f
000000d0: 03f8 7d3f 1386 7d3f 3ceb 823f ef94 823f
000000e0: 8e20 7d3f f276 7b3f a3cb 7d3f 949a 813f
000000f0: 2dcc 803f 9972 7d3f f1b3 803f 7030 803f
00000100: 3429 7f3f 7133 7e3f 57b2 823f 4992 7c3f
00000110: 692b 813f dce6 7b3f 334c 7c3f 99f7 7b3f
00000120: f45f 7d3f 62d1 793f 0761 7e3f bf56 833f
00000130: d810 7f3f d9ec 7b3f b965 843f 5812 803f
00000140: fb61 7e3f bd08 793f 6d46 7e3f 67d0 7d3f
00000150: b3a8 7d3f 34c1 7e3f f772 803f aac3 803f
00000160: a46a 7d3f 3358 823f 8a0f 853f 1622 7b3f
00000170: bf28 873f 078f 813f aae5 7b3f 93be 7b3f
00000180: cab8 7e3f 17f5 813f 1232 7c3f 5fa8 7c3f
00000190: 6d74 7f3f 0466 813f 8830 7e3f d5a4 823f
000001a0: d247 7d3f 625a 7c3f b96c 7e3f a286 7e3f
000001b0: 6a7b 793f ac75 823f f7e0 803f e902 7b3f
000001c0: 2193 7a3f 9fdf 7c3f 0294 7c3f ef1a 7e3f
000001d0: ffd6 803f a059 7d3f 7509 7c3f a07a 7b3f
000001e0: 1a65 7f3f 3dc2 803f 924e 7f3f 7ee5 7f3f
000001f0: 4b03 7e3f 4436 833f 088e 7e3f 017d 7e3f

feature_net.1.bias f4 [128]
-0.024121786 0.024537055 -0.03408095 0.0016221468 0.0029505272 -0.011140939 -0.026945679 -0.01722517
-0.025004053 0.026467737 0.029419392 0.022045704 0.01606492 -0.009069175 -0.0047445195 -0.023801731
-0.0052641127 -0.008772058 0.019842861 -0.020103013 0.029051905 0.02316142 -0.046061702 0.020731563
0.011903109 -0.026045488 -0.023365509 0.029055737 -0.02338885 -0.027390866 -0.025291659 0.014473274
-0.02550978 -0.027492978 -0.025089111 0.030326838 0.02660082 -0.025136411 -0.018026449 0.013190604
0.021662308 -0.038024526 -0.02395625 -0.023444602 0.02697488 -0.027176028 -0.012458204 0.022241166
0.022813752 -0.036005132 -0.017994184 -0.01695328 0.0033719644 -0.0126390755 0.033210624 0.025197217
0.017293325 0.0165672 0.024079852 -0.028202554 -0.034716394 -0.012003918 0.038888212 -0.03682728
-0.018863002 -0.027793901 -0.046893846 0.013571487 0.014108307 -0.014659187 -0.007939087 -0.014543516
0.022041688 -0.014242007 -0.0074438485 -0.037002567 0.022329036 -0.015070615 0.029053714 -0.02474452
0.03318881 -0.017263524 -0.03114603 0.022862915 -0.0047558066 -0.012242092 -0.04355951 0.029426664
-0.017320031 0.030455183 -0.042756658 -0.018916478 0.041407958 0.029236963 0.032558817 0.016083056
-0.02679144 -0.03683708 0.01940084 -0.031140372 -0.023188096 0.022723224 0.016441181 0.02291341
-0.0052621686 -0.025708467 -0.027879877 0.019289305 0.012300014 -0.026142487 -0.025202312 -0.004047385
-0.01742188 0.016715508 -0.019482408 -0.024638778 -0.024671616 0.019828923 0.008999904 0.022794569
0.019011656 -0.024093375 0.039321747 0.02466621 -0.0044385297 -0.028241523 0.020943454 -0.03178715
00000000: 0d9b c5bc ef01 c93c 7798 0bbd 379e d43a
00000010: a25d 413b 7c88 36bc 2fbd dcbc cd1b 8dbc
00000020: 4dd5 ccbc ded2 d83c f000 f13c 3199 b43c
00000030: 949a 833c e196 14bc ea77 9bbb d9fb c2bc
00000040: 947e acbb aeb8 0fbc 7f8d a23c 13af a4bc
00000050: 43fe ed3c 05bd bd3c 32ab 3cbd 3dd5 a93c
00000060: 4205 433c 595d d5bc 0669 bfbc 4c06 ee3c
00000070: f999 bfbc cf62 e0bc 7430 cfbc 5021 6d3c
00000080: e3f9 d0bc f438 e1bc ae87 cdbc fd6f f83c
00000090: f6e9 d93c e0ea cdbc 34ac 93bc 671d 583c
000000a0: 2775 b13c 9bbf 1bbd e63f c4bc e50e c0bc
000000b0: 6cfa dc3c 43a0 debc 7f1d 4cbc 1b33 b63c
000000c0: e8e3 ba3c 1e7a 13bd 8a68 93bc 9be1 8abc
000000d0: 2dfc 5c3b 2014 4fbc dd07 083d 656a ce3c
000000e0: bbaa 8d3c f0b7 873c 1c43 c53c 0b09 e7bc
000000f0: c732 0ebd 15ac 44bc 3f49 1f3d 34d8 16bd
00000100: 9586 9abc 09b0 e3bc c313 40bd f15a 5e3c
00000110: 8726 673c 162d 70bc f212 02bc ed47 6ebc
00000120: c590 b43c 4f57 69bc 87eb f3bb 0190 17bd
00000130: 62eb b63c beea 76bc 0e02 ee3c 05b5 cabc
00000140: fdf0 073d 3c6c 8dbc f625 ffbc 024b bb3c
00000150: 99d6 9bbb 0e93 48bc 756b 32bd 3010 f13c
00000160: bde2 8dbc 267d f93c 9b21 2fbd bbf6 9abc
00000170: 649b 293d 5b82 ef3c 655c 053d 9dc0 833c
00000180: b979 dbbc 7ae2 16bd 83ee 9e3c 181a ffbc
00000190: f6f4 bdbc 0e26 ba3c a8af 863c e7b4 bb3c
000001a0: 456e acbb 909a d2bc 5764 e4bc 9b04 9e3c
000001b0: ff85 493c c528 d6bc 1475 cebc ed9f 84bb
000001c0: 55b8 8ebc f6ee 883c 9299 9fbc 43d7 c9bc
000001d0: 211c cabc 4470 a23c 5574 133c adbb ba3c
000001e0: 55be 9b3c 785f c5bc d70f 213d cb10 ca3c
000001f0: 1671 91bb c45a e7bc 9b91 ab3c 3e33 02bd

feature_net.4.weight f4 [128, 128]
0.06653483 -0.0059179165 -0.009968121 -0.022345182 0.10309579 0.02927435 -0.06200815 0.046028063
0.113723494 -0.013050029 0.048237782 0.09373335 -0.020655392 -0.05141501 0.061166205 -0.09666867
0.13626514 0.030358711 0.03810671 0.11219374 -0.014797094 0.032248843 -0.02392814 0.060298942
-0.020206066 0.09632582 0.047843825 -0.03211441 -0.0062749507 0.08033645 -0.1430774 -0.1373961
0.020834979 -0.002283905 0.076522924 -0.02883813 0.061044216 0.05058865 -0.05957332 0.10256354
-0.149103 -0.023812318 0.015927473 0.0183066 0.097220786 -0.0054589263 0.05752104 -0.053921707
0.13040777 0.044496834 -0.02604048 0.02301464 -0.007869057 -0.008631628 -0.054872885 0.028493026
0.010823395 -0.015112243 0.10537096 -0.07853751 0.033800468 -0.041822016 -0.10577218 0.03757277
0.018467303 -0.007739456 0.11623701 0.0068326634 -0.12355069 0.09715968 0.017172497 0.09833836
-0.03209404 -0.0023049922 0.12614478 -0.18051098 0.05719107 0.13436799 -0.040001187 -0.044622682
-0.013392867 0.068064876 -0.027386224 0.021131003 0.03760717 0.05375349 0.088317215 0.054901816
-0.078798585 0.036879983 0.17342609 0.19648261 -0.07723987 0.0512806 -0.15509263 -0.039860643
-0.098630235 0.120515615 0.11454087 0.07716088 -0.04990394 -0.018965462 -0.012455832 0.055011917
-0.007887419 0.08834687 0.10618084 -0.016695917 0.10662485 -0.06339234 -0.044636622 0.20585433
0.030178312 0.0059258095 0.081557564 -0.030866865 0.07377805 -0.05752749 -0.033519357 -0.07666592
0.08382989 -0.0019604282 0.05878646 0.016777785 -0.085438944 0.07062383 0.07339998 -0.06675763
0.16096856 0.0028230888 0.067785524 -0.06785574 0.029226169 -0.0031919447 0.14004536 0.22570169
0.02637494 0.06724268 -0.011495297 -0.018263157 0.03497724 0.114055574 -0.023439826 0.12473664
-0.048868116 -0.09138261 -0.06424632 -0.034930672 0.12853757 -0.16227615 -0.033735752 0.059544142
-0.0926241 -0.032115098 -0.09011267 -0.011501055 0.16571133 -0.022891251 0.043858502 0.024029555
-0.04160904 0.0018283915 -0.05613343 -0.18147907 0.15790461 -0.014169817 0.04161277 0.16126189
-0.06783685 -0.12923825 -0.099009566 -0.079802826 -0.023048958 0.02160223 -0.00025298234 -0.038668808
-0.07283411 -0.0839962 -0.06760554 0.039082747 0.09853451 0.09208834 0.11254356 -0.070486344
0.10656004 -0.014436169 -0.007971157 0.060973596 -0.039279718 -0.08869731 -0.052578777 0.030941838
0.07215892 0.02266918 0.091186814 -0.07041966 -0.051408604 -0.14036229 0.030268595 -0.11412809
-0.08005253 0.07336603 0.016864274 -0.06855955 -0.08250625 0.093998834 0.049457345 -0.08746846
0.022860283 -0.068481095 0.031900164 -0.02949697 0.11676224 0.13549791 0.099667616 0.046478774
-0.038389176 -0.09720049 -0.09215133 0.038602486 -0.09032969 -0.10309456 0.13689709 0.14221796
0.11634279 0.07337571 -0.010387184 0.04058009 -0.032489505 -0.006072067 -0.14644535 -0.077694744
-0.015173152 0.027185753 -0.08104466 -0.073932245 -0.24304509 0.06264918 0.012593922 0.06587372
0.113317154 -0.034903027 -0.06633378 0.045780215 -0.042382516 0.1391749 0.020007683 -0.03601733
-0.0971065 -0.07513718 0.034131486 -0.03044855 -0.035447907 0.08361584 -0.014267921 -0.015256692
00000000: 6a43 883d 15eb c1bb 5451 23bc 3e0d b7bc
00000010: e323 d33d c3d0 ef3c 42fc 7dbd ec87 3c3d
00000020: dde7 e83d cacf 55bc fb94 453d 45f7 bf3d
00000030: 7f35 a9bc 8c98 52bd 6a89 7a3d 39fa c5bd
00000040: 1789 0b3e d5b2 f83c c815 1c3d d5c5 e53d
00000050: 836f 72bc 5d17 043d f204 c4bc 06fc 763d
00000060: 3187 a5bc 7946 c53d e3f7 433d 668a 03bd
00000070: 1a9e cdbb 7087 a43d e282 12be 90b1 0cbe
00000080: 1eae aa3c 91ad 15bb 0db8 9c3d f13d ecbc
00000090: 8009 7a3d 0b36 4f3d 2703 74bd d50c d23d
000000a0: 75ae 18be 0d12 c3bc 557a 823c b9f7 953c
000000b0: b11b c73d cbe0 b2bb 2f9b 6b3d 02dd 5cbd
000000c0: 9d89 053e 5042 363d d852 d5bc 3389 bc3c
000000d0: 38ed 00bc ac6b 0dbc 64c2 60bd 356a e93c
000000e0: 9c54 313c 5799 77bc bbcc d73d 46d8 a0bd
000000f0: 5c72 0a3d 904d 2bbd 169f d8bd e8e5 193d
00000100: be48 973c 439b fdbb ab0d ee3d 89e4 df3b
00000110: 2508 fdbd a8fb c63d 56ad 8c3c 9f65 c93d
00000120: 0a75 03bd 5a0f 17bb 192c 013e dfd7 38be
00000130: 2f41 6a3d c397 093e 49d8 23bd 46c6 36bd
00000140: c16d 5bbc 9965 8b3d 1359 e0bc ed1a ad3c
00000150: fa09 1a3d 9f2c 5c3d a8df b43d bae0 603d
00000160: 2761 a1bd 770f 173d 9c96 313e bd32 493e
00000170: f02f 9ebd 9b0b 523d 9ad0 1ebe ea44 23bd
00000180: a6fe c9bd e4d0 f63d 6794 ea3d 8606 9e3d
00000190: 1368 4cbd 755d 9bbc 8c13 4cbc 2d54 613d
000001a0: 3c3a 01bc 34ef b43d 5775 d93d e0c5 88bc
000001b0: 215e da3d d8d3 81bd e4d4 36bd 7acb 523e
000001c0: 8238 f73c 4b2d c23b a707 a73d 82dc fcbc
000001d0: f218 973d f2a1 6bbd 984b 09bd 0603 9dbd
000001e0: 01af ab3d 877a 00bb 12ca 703d 9171 893c
000001f0: 9dfa aebd 3aa3 903d bb52 963d 39b8 88bd
00000200: f1d4 243e 9203 393b 23d3 8a3d f3f7 8abd
00000210: b86b ef3c f22f 51bb 0d68 0f3e 581e 673e
00000220: 4210 d83c 88b6 893d c556 3cbc 9e9c 95bc
00000230: 4b44 0f3d f895 e93d e104 c0bc ec75 ff3d
00000240: ef29 48bd ce26 bbbd 9393 83bd 7713 0fbd
00000250: 5a9f 033e b82b 26be 802e 0abd 8fe4 733d
00000260: b4b1 bdbd 1f8b 03bd fe8c b8bd ec6e 3cbc
00000270: 3bb0 293e 6f86 bbbc f9a4 333d a1d9 c43c
00000280: 3e6e 2abd a3a6 ef3a 2bec 65bd a6d5 39be
00000290: bfb1 213e 8528 68bc 2772 2a3d d621 253e
000002a0: 0cee 8abd 0857 04be 87c5 cabd aa6f a3bd
000002b0: 2bd1 bcbc 29f7 b03c b7a2 84b9 2f63 1ebd
000002c0: 0d2a 95bd 3306 acbd c674 8abd 3b15 203d
000002d0: 76cc c93d d098 bc3d 3d7d e63d 255b 90bd
000002e0: 263c da3d ae85 6cbc 7599 02bc 73bf 793d
000002f0: c5e3 20bd efa6 b5bd d85c 57bd bd79 fd3c
00000300: 0ec8 933d b7b4 b93c 27c0 ba3d 2f38 90bd
00000310: d491 52bd 22bb 0fbe d8f5 f73c fdbb e9bd
00000320: 95f2 a3bd ee40 963d f226 8a3c f368 8cbd
00000330: 09f9 a8bd 7682 c03d c993 4a3d aa22 b3bd
00000340: 7d45 bb3c d13f 8cbd bfa9 023d a1a3 f1bc
00000350: 0b21 ef3d f7bf 0a3e 891e cc3d 8760 3e3d
00000360: f83d 1dbd 0d11 c7bd d6b9 bcbd a41d 1e3d
00000370: c6fe b8bd 3e23 d3bd c02e 0c3e 96a1 113e
00000380: 2145 ee3d 0146 963d 022f 2abc 4f37 263d
00000390: b713 05bd 31f8 c6bb c5f5 15be 6c1e 9fbd
000003a0: d098 78bc a8b4 de3c befa a5bd ca69 97bd
000003b0: d0e0 78be 374e 803d bd56 4e3c cde8 863d
000003c0: d312 e83d 7af6 0ebd 01da 87bd 0984 3b3d
000003d0: 4a99 2dbd dd83 0e3e 27e7 a33c e886 13bd
000003e0: c6df c6bd 86e1 99bd 75cd 0b3d 3d6f f9bc
000003f0: d331 11bd c83e ab3d 00c4 69bc 34f7 79bc

feature_net.4.bias f4 [128]
-0.008291823 -0.007513346 -0.0062359683 -0.01331382 0.024927093 -0.03114617 -0.004590722 -0.0122499885
0.027539426 0.014763262 0.026283786 0.024706261 0.023788277 0.026596311 0.031416178 -0.011251181
0.028704505 0.04869497 -0.0063656527 0.020862438 -0.010717362 0.028559435 0.029690629 -0.010094757
-0.008226339 0.030964911 -0.009313397 -0.010926875 0.026972653 -0.004942112 -0.007652587 0.0068590525
0.039279677 0.032423217 -0.010162428 0.022079255 0.03604363 0.003982994 0.026570559 -0.014328936
0.024114821 -0.018822344 0.026944954 0.023608105 0.034641985 0.034513798 0.030887315 0.0012219672
0.021307947 0.024141388 -0.012243376 0.035751328 0.033602174 0.024051623 0.04167221 0.028711803
0.02679065 -0.009049046 -0.01806945 -0.004678787 -0.00830878 -0.016570037 -0.017574131 0.02955928
0.039390765 -0.013171501 -0.011639718 -0.0070717274 -0.0026913262 0.008788228 0.01637537 -0.009907871
-0.027953638 -0.014114878 0.031455405 -0.008374197 0.027051983 0.031586364 -0.015994735 -0.0089915125
0.028797422 0.003831051 0.027072694 -0.0035174969 -0.010070987 0.026631787 0.026677284 0.02516569
0.0032686235 -0.010313757 0.028342923 -0.007997313 0.02792312 0.03275388 -0.005849641 0.031011596
-0.012791567 0.016587922 0.028759686 -0.0054110363 0.028633492 0.033190228 0.029390976 0.029455403
-0.008378701 -0.0063947653 0.028858786 -0.0076778494 0.033170573 -0.0136820655 -0.0080869105 0.03211098
-0.010846272 0.027516916 0.018866446 -0.015368817 0.045074373 0.022171143 7.0830814e-05 0.027926965
0.027474094 -0.0006685879 0.02670552 0.060176328 -0.0026936326 0.026633704 -0.007906987 -0.016858758
00000000: 6dda 07bc 8432 f6bb 1857 ccbb 3522 5abc
00000010: e733 cc3c 4126 ffbc c46d 96bb 2db4 48bc
00000020: 5d9a e13c 9ce1 713c 1851 d73c c964 ca3c
00000030: a2df c23c 82e0 d93c 40ae 003d e056 38bc
00000040: b625 eb3c 6074 473d f796 d0bb b4e7 aa3c
00000050: e097 2fbc 7af5 e93c c339 f33c 7b64 25bc
00000060: c4c7 06bc 20aa fd3c 3897 18bc a306 33bc
00000070: c1f5 dc3c 71f1 a1bb 8dc2 fabb e7c1 e03b
00000080: bae3 203d 35ce 043d 5080 26bc 8edf b43c
00000090: 7ca2 133d c683 823b 80aa d93c eac3 6abc
000000a0: 728c c53c 5131 9abc aabb dc3c c965 c13c
000000b0: c1e4 0d3d 575e 0d3d 6507 fd3c 6a2a a03a
000000c0: 018e ae3c 29c4 c53c 7198 48bc fc6f 123d
000000d0: 6fa2 093d e907 c53c 7bb0 2a3d 0435 eb3c
000000e0: 1178 db3c 7342 14bc 6206 94bc 8350 99bb
000000f0: 8d21 08bc e3bd 87bc a0f7 8fbc 4e26 f23c
00000100: 3658 213d 48cd 57bc 84b4 3ebc f3b9 e7bb
00000110: f660 30bb 80fc 0f3c a425 863c 9f54 22bc
00000120: 07ff e4bc 1742 67bc 62d7 003d ee33 09bc
00000130: 1f9c dd3c b460 013d 6407 83bc 2351 13bc
00000140: 92e8 eb3c 5f12 7b3b 8ec7 dd3c ce85 66bb
00000150: c800 25bc e82a da3c 528a da3c 4728 ce3c
00000160: 6736 563b 08fb 28bc 6b2f e83c 2907 03bc
00000170: 07bf e43c ef28 063d 58ae bfbb 080c fe3c
00000180: b893 51bc 65e3 873c 6f99 eb3c 104f b1bb
00000190: c990 ea3c 7af2 073d 58c5 f03c 754c f13c
000001a0: d246 09bc 2e8b d1bb 4369 ec3c 7896 fbbb
000001b0: dedd 073d be2a 60bc f67e 04bc ce86 033d
000001c0: 90b4 31bc 286b e13c ce8d 9a3c 7ecd 7bbc
000001d0: e89f 383d 42a0 b53c 018b 9438 17c7 e43c
000001e0: 5a11 e13c 2d44 2fba 89c5 da3c 747b 763d
000001f0: a887 30bb ed2e da3c 4f8c 01bc 611b 8abc

feature_net.5.weight f4 [128]
0.9994928 1.0024589 0.9926857 1.0096036 0.9942369 1.0006604 1.0070661 0.995286
1.0059593 0.99251366 0.9908909 0.993762 1.0076132 1.0008436 1.0195239 1.0191437
1.0097429 1.0025641 0.99987686 1.0041664 1.0040392 1.0029688 1.0123976 1.0094118
0.9977771 0.99633497 1.0198895 1.0157125 1.0015022 0.9957828 1.000714 0.9945556
0.9854129 1.0153122 1.0001202 1.0050718 1.0199907 0.9934722 0.9926603 0.9989903
0.9919513 1.0381894 0.9978465 1.0094017 1.0059674 1.0262048 1.0133542 1.0012877
0.99544966 0.99061334 1.0043434 1.0277786 1.0082626 0.9907288 1.0404714 1.0028961
0.9972095 1.0297585 0.9978197 0.9935661 0.99791163 1.0006597 0.99688953 0.99771786
1.0164483 1.0270272 1.0157579 0.9943515 0.9945715 0.99717724 0.99478924 1.0224398
1.011524 1.0141433 1.008855 1.0040039 1.0002675 1.0336885 0.9993097 1.0189052
1.0096905 1.0054548 0.99470204 0.9974878 0.99424493 0.98852396 0.9998104 0.99486303
0.99561787 0.99982536 1.0027739 1.0029709 0.998378 0.9902406 1.0006788 0.99694616
1.0066762 0.9923859 0.99741966 1.0044504 1.0168012 0.99601376 0.98730564 1.0141144
1.0139862 0.9990757 1.0023007 1.0155402 0.990927 1.0039084 1.008851 1.0024362
1.0116923 1.0055921 0.9982693 1.0042666 1.0369414 0.99465644 0.99860185 0.993854
1.0082716 0.9966375 1.0063503 1.0056474 1.0048349 0.99696726 1.0002363 1.0169797
00000000: c3de 7f3f 9350 803f a620 7e3f b13a 813f
00000010: 4f86 7e3f a415 803f 8be7 803f 10cb 7e3f
00000020: 46c3 803f 6015 7e3f 07ab 7d3f 3067 7e3f
00000030: 78f9 803f a51b 803f c27f 823f 4d73 823f
00000040: 413f 813f 0554 803f eef7 7f3f 8688 803f
00000050: 5b84 803f 4861 803f 3f96 813f 6834 813f
00000060: 526e 7f3f cf0f 7f3f bd8b 823f de02 823f
00000070: 3931 803f 9feb 7e3f 6517 803f 329b 7e3f
00000080: 0544 7c3f c0f5 813f f003 803f 31a6 803f
00000090: 0e8f 823f 3254 7e3f fc1e 7e3f d4bd 7f3f
000000a0: 85f0 7d3f 64e3 843f de72 7f3f 1334 813f
000000b0: 8ac3 803f ae5a 833f 97b5 813f 322a 803f
000000c0: cad5 7e3f d698 7d3f 538e 803f 408e 833f
000000d0: c00e 813f 67a0 7d3f 2b2e 853f e65e 803f
000000e0: 1f49 7f3f 20cf 833f 1d71 7f3f 595a 7e3f
000000f0: 2377 7f3f 9e15 803f 2734 7f3f 706a 7f3f
00000100: fa1a 823f a175 833f 5b04 823f d28d 7e3f
00000110: 3d9c 7e3f 0247 7f3f 82aa 7e3f 4fdf 823f
00000120: 9e79 813f 73cf 813f 2922 813f 3383 803f
00000130: c408 803f e84f 843f c3d2 7f3f 7c6b 823f
00000140: 8a3d 813f beb2 803f cba4 7e3f 5c5b 7f3f
00000150: d686 7e3f e80f 7d3f 93f3 7f3f 58af 7e3f
00000160: d0e0 7e3f 8ef4 7f3f e55a 803f 5a61 803f
00000170: b395 7f3f 6880 7d3f 3e16 803f dd37 7f3f
00000180: c4da 803f 010d 7e3f e556 7f3f d591 803f
00000190: 8b26 823f c2fa 7e3f 10c0 7c3f 80ce 813f
000001a0: 4dca 813f 6dc3 7f3f 644b 803f 39fd 813f
000001b0: 64ad 7d3f 1280 803f 0822 813f d44f 803f
000001c0: 227f 813f 3eb7 803f 948e 7f3f cf8b 803f
000001d0: 7fba 843f cea1 7e3f 5fa4 7f3f 376d 7e3f
000001e0: 0b0f 813f a323 7f3f 16d0 803f 0eb9 803f
000001f0: 6e9e 803f 3f39 7f3f be07 803f 642c 823f

feature_net.5.bias f4 [128]
-0.015700992 -0.01477405 -0.01386878 -0.019481381 0.009957642 -0.03178344 -0.012654589 -0.018916834
0.01460771 0.0036090587 0.013662909 0.006416076 0.010976322 0.01424231 0.018393286 -0.018329037
0.012645586 0.033127803 -0.014175813 0.008503345 -0.01744768 0.018303854 0.016929233 -0.017365038
-0.017907899 0.019810062 -0.01647145 -0.017812364 0.014821079 -0.013055309 -0.014980607 -0.016954962
0.029482221 0.019481398 -0.01720266 0.010869804 0.022607673 -0.0064517185 0.006863154 -0.01995036
0.011685078 -0.022627778 0.015582654 0.01163373 0.021973819 0.020925328 0.01708041 -0.015738292
0.00939842 0.011850903 -0.018772244 0.022346856 0.020060053 0.01136661 0.027712343 0.016901363
0.014887001 -0.01621337 -0.021216994 -0.012745098 -0.015698083 -0.020206267 -0.02208693 0.016821584
0.02601171 -0.019688996 -0.01744093 -0.016628303 -0.011376413 -0.007746717 0.0020857186 -0.01692749
-0.030363422 -0.01956921 0.018074505 -0.017338483 0.014559007 0.018506806 -0.020987809 -0.015936017
0.016073488 -0.008655023 0.014137256 -0.016886005 -0.016429236 0.014285165 0.014645282 0.01321638
-0.0073944824 -0.01742705 0.015223486 -0.015746864 0.016064053 0.019947087 -0.0136267 0.018807199
-0.018931255 -0.004563224 0.01594764 -0.0140107265 0.016065286 0.020252679 0.011826395 0.016772194
-0.015026778 -0.014478959 0.015638769 -0.015068863 0.017318452 -0.020018136 -0.015266136 0.018847538
-0.017547118 0.015482851 0.005982841 -0.020891292 0.030622868 0.010355784 -0.009308175 0.0017223243
0.015301991 -0.011050744 0.017329486 0.053659327 -0.011728895 0.014212959 -0.014547406 -0.023411583
00000000: 5e9f 80bc db0e 72bc e139 63bc 6b97 9fbc
00000010: 6125 233c 5a2f 02bd 3155 4fbc 7af7 9abc
00000020: 2d55 6f3c f585 6c3b 65da 5f3c f23d d23b
00000030: 08d6 333c 9458 693c 84ad 963c c726 96bc
00000040: 6f2f 4f3c 05b1 073d ab41 68bc 9d51 0b3c
00000050: 70ee 8ebc f7f1 953c 2daf 8a3c 2041 8ebc
00000060: 96b3 92bc b648 a23c 22ef 86bc 3ceb 91bc
00000070: 1cd4 723c efe5 55bc 3871 75bc 22e5 8abc
00000080: b384 f13c 7497 9f3c 98ec 8cbc 4317 323c
00000090: ba33 b93c f068 d3bb 4fe4 e03b f06e a3bc
000000a0: c572 3f3c e45d b9bc 634e 7f3c 669b 3e3c
000000b0: 7002 b43c 986b ab3c 37ec 8b3c 97ed 80bc
000000c0: d5fb 193c 4a2a 423c 40c8 99bc c110 b73c
000000d0: fb54 a43c 053b 3a3c ff04 e33c ba74 8a3c
000000e0: 9ce8 733c e7d1 84bc 43cf adbc d1d0 50bc
000000f0: 4499 80bc 9d87 a5bc a6ef b4bc 6bcd 893c
00000100: 8216 d53c d14a a1bc 48e0 8ebc 1438 88bc
00000110: 2264 3abc 2cd8 fdbb 8db0 083b 85ab 8abc
00000120: b6bc f8bc 9c4f a0bc fc10 943c 6f09 8ebc
00000130: e788 6e3c 969b 973c a0ee abbc 408c 82bc
00000140: 8cac 833c cccd 0dbc f39f 673c 8554 8abc
00000150: 9b96 86bc 530c 6a3c c4f2 6f3c 8489 583c
00000160: 6a4d f2bb 2cc3 8ebc ee6b 793c 91ff 80bc
00000170: c398 833c 1368 a33c 8642 5fbc 8e11 9a3c
00000180: b815 9bbc 1987 95bb a0a4 823c 3f8d 65bc
00000190: 599b 833c f2e8 a53c 7fc3 413c d765 893c
000001a0: e032 76bc 2839 6dbc e01c 803c 64e3 76bc
000001b0: 6ddf 8d3c 13fd a3bc d11e 7abc 2766 9a3c
000001c0: f9be 8fbc c9ab 7d3c b50b c43b 3724 abbc
000001d0: cfdc fa3c 4eab 293c 5181 18bc 9dbf e13a
000001e0: 34b5 7a3c 2e0e 35bc 91f6 8d3c e2c9 5b3d
000001f0: 8d2a 40bc 79dd 683c 3e58 6ebc a6c9 bfbc

feature_net.8.weight f4 [64, 128]
0.03157455 -0.05287419 -0.16257606 0.008977893 0.009078266 0.05761374 0.016925626 -0.0030011295
0.004795804 0.03502023 0.011661237 -0.010098308 0.001877633 0.0925801 -0.032925982 0.049987037
-0.081687815 0.14708473 -0.10620114 -0.019061804 -0.04645366 -0.18530713 0.031049158 0.081847616
-0.050379224 -0.0347517 -0.09972153 -0.24900164 -0.23039962 0.041008376 0.043960277 0.022989653
-0.18560934 -0.008992148 -0.05418493 0.027137322 0.115787484 0.14528677 -0.1483469 0.040027156
0.007396165 -0.035394575 -0.10011266 -0.064031206 -0.12649316 -0.155114 -0.05393208 0.16722208
0.024486015 0.042827982 0.045812327 0.14355968 -0.016145937 -0.051907 0.07325186 0.064465
-0.10429484 -0.032745957 -0.07101176 -0.103067465 0.07247739 0.09212763 -0.08668562 -0.031777184
-0.10700699 0.039845854 0.10204691 -0.10340083 -0.030787315 0.08658711 0.0056802817 0.010154229
0.13496386 -0.09763545 0.05424617 -0.06236452 0.011799036 -0.0413269 0.101496205 -0.010625572
0.06106338 -0.035408963 -0.3599434 -0.0035629561 0.09837961 -0.123432405 -0.05083676 0.009065267
0.1441147 -0.13185579 -0.03492815 -0.0880575 0.11419016 0.25819796 0.12971029 -0.049148466
0.09278579 -0.07881538 -0.05457194 -0.098620184 -0.22250994 0.19585882 0.08385078 0.23957145
0.07800415 -0.040807474 -0.016261548 -0.037246417 0.059105966 -0.06975501 -0.18562911 -0.10916735
-0.114678375 0.15100962 -0.06309833 0.06195767 -0.11255378 -0.095396966 0.035861745 0.1560723
-0.03474553 -0.028879 -0.023921728 -0.048978772 -0.0959097 0.0943761 0.06490495 -0.082907595
0.0744761 0.18614894 0.035889156 -0.12259168 0.16502379 0.032487873 0.28052354 1.32783625e-05
0.039705757 -0.2591206 0.0093102185 0.14635628 0.02472146 0.008364536 -0.19069079 0.04307338
0.12613462 0.032697894 0.1358303 0.11707887 0.00472786 0.052809313 0.008726057 0.12846011
0.029602597 -0.16619408 -0.008009445 -0.054990847 -0.03647912 0.19739334 -0.11263508 -0.16295594
0.09361669 -0.035152636 -0.09314164 -0.19339767 -0.03317424 0.1301516 -0.053193554 0.188765
-0.13521203 0.15533291 -0.11822309 0.04091608 -0.2050752 -0.093099855 -0.010515851 -0.045940228
0.1972766 0.122206934 0.10475117 0.106453 0.060284663 -0.008274209 -0.010609112 -0.05133103
0.07507765 -0.06298912 0.049588505 -0.11329765 3.4536646e-05 0.11021714 0.19565506 -0.2592719
0.044163827 -0.04721943 0.06345548 0.026373085 0.02447091 -0.07682168 0.1973824 0.2837376
-0.13614592 0.021294957 -0.088048846 0.0030719733 -0.096720204 0.005414694 -0.042086933 0.062686376
0.005486584 -0.059050377 -0.13914815 -0.14404768 0.30171123 -0.045789275 -0.04311458 -0.10135546
0.028990585 0.23030156 0.012699334 -0.028712349 -0.038393147 -0.10900811 -0.09113319 -0.0042341156
0.27374893 -0.032657668 -0.0721921 -0.03682951 -0.13863067 -0.13141376 -0.23666653 0.099170014
0.18382938 0.08641474 -0.13262972 0.112460434 0.018161181 0.030505998 0.025523657 0.021662146
-0.03476986 0.23141217 0.089317545 0.08633701 0.0056245043 -0.18139736 0.107122935 0.05573273
-0.051546663 0.03156649 0.029243648 -0.033164274 0.013805167 -0.023556206 0.1548965 0.10051871
00000000: 5154 013d 9b92 58bd 577a 26be 0318 133c
00000010: 02bd 143c 63fc 6b3d 9ca7 8a3c 99ae 44bb
00000020: 1f26 9d3b 5f71 0f3d c60e 3f3c 6073 25bc
00000030: e91a f63a a39a bd3d 65dd 06bd 35bf 4c3d
00000040: f14b a7bd 619d 163e fc7f d9bd 8027 9cbc
00000050: 3146 3ebd 27c1 3dbe ce5a fe3c b99f a73d
00000060: 725a 4ebd cc57 0ebd cd3a ccbd 49fa 7ebe
00000070: e1ed 6bbe 66f8 273d b10f 343d cc54 bc3c
00000080: 6010 3ebe cd53 13bc 04f1 5dbd 174f de3c
00000090: fd21 ed3d 0ec6 143e 40e8 17be 84f3 233d
000000a0: 875b f23b e7f9 10bd de07 cdbd cb22 83bd
000000b0: 6c87 01be 34d6 1ebe e2e7 5cbd 443c 2b3e
000000c0: e596 c83c 656c 2f3d b5a5 3b3d 4f01 133e
000000d0: 7c44 84bc 6f9c 54bd 1205 963d 3a06 843d
000000e0: 8898 d5bd a020 06bd 9d6e 91bd 0915 d3bd
000000f0: 076f 943d 69ad bc3d 3b88 b1bd cb28 02bd
00000100: 7b26 dbbd 6835 233d f8fd d03d d0c3 d3bd
00000110: ae35 fcbc 9554 b13d a821 ba3b ec5d 263c
00000120: f733 0a3e 18f5 c7bd 3b31 5e3d f071 7fbd
00000130: be50 413c 6546 29bd 3edd cf3d e116 2ebc
00000140: 981d 7a3d fd08 11bd 804a b8be 7c80 69bb
00000150: 407b c93d 21ca fcbd 353a 50bd 7c86 143c
00000160: ce92 133e 3405 07be d210 0fbd 7e57 b4bd
00000170: 88dc e93d 8632 843e c6d2 043e e74f 49bd
00000180: 7a06 be3d f569 a1bd d486 5fbd 61f9 c9bd
00000190: a5d9 63be 378f 483e f5b9 ab3d 3852 753e
000001a0: a4c0 9f3d bd25 27bd f036 85bc b38f 18bd
000001b0: 1919 723d b7db 8ebd 8f15 3ebe 2293 dfbd
000001c0: 7fdc eabd 44a2 1a3e b239 81bd 53c7 7d3d
000001d0: 9982 e6bd 7c5f c3bd c4e3 123d 6bd1 1f3e
000001e0: 5451 0ebd a793 ecbc 80f7 c3bc f79d 48bd
000001f0: 4e6c c4bd 4248 c13d e3ec 843d 75cb a9bd
00000200: ed86 983d d49d 3e3e 8200 133d 5911 fbbd
00000210: fffb 283e 0112 053d c8a0 8f3e 22c6 5e37
00000220: 81a2 223d 75ab 84be e389 183c 6cde 153e
00000230: a984 ca3c 680b 093c 7244 43be b66d 303d
00000240: 6f29 013e 3aee 053d 1917 0b3e 0cc7 ef3d
00000250: 2aec 9a3b 944e 583d bcf7 0e3c 0c8b 033e
00000260: 2581 f23c c82e 2abe 0c3a 03bc 153e 61bd
00000270: 216b 15bd 7b21 4a3e 39ad e6bd ecdd 26be
00000280: 1bba bf3d 36fc 0fbd 0bc1 bebd 0a0a 46be
00000290: b6e1 07bd 7646 053e 7ce1 59bd 9d4b 413e
000002a0: 0675 0abe 970f 1f3e f31e f2bd 9f97 273d
000002b0: 3cff 51be 23ab bebd ad4a 2cbc d22b 3cbd
000002c0: e102 4a3e a147 fa3d c887 d63d 0804 da3d
000002d0: 0ded 763d 8c90 07bc d7d1 2dbc 7c40 52bd
000002e0: 50c2 993d 7100 81bd 511d 4b3d 9908 e8bd
000002f0: 71db 1038 86b9 e13d cd59 483e 49bf 84be
00000300: 21e5 343d 2969 41bd f2f4 813d 5e0c d83c
00000310: 3877 c83c af54 9dbd 9d1e 4a3e 0e46 913e
00000320: d669 0bbe c372 ae3c f452 b4bd 2953 493b
00000330: 3e15 c6bd bf6d b13b 5963 2cbd b761 803d
00000340: cdc8 b33b cfde 71bd da7c 0ebe 3c81 13be
00000350: e579 9a3e 898d 3bbd ea98 30bd 7493 cfbd
00000360: aa7d ed3c 2cd4 6b3e de10 503c 2936 ebbc
00000370: 2242 1dbd a53f dfbd 0aa4 babd 56be 8abb
00000380: d228 8c3e 0cc4 05bd 74d9 93bd 8ada 16bd
00000390: 33f5 0dbe 5491 06be b658 72be a619 cb3d
000003a0: c53d 3c3e 36fa b03d 16d0 07be a851 e63d
000003b0: c2c6 943c b7e7 f93c fd16 d13c d074 b13c
000003c0: d76a 0ebd 50f7 6c3e 1eec b63d 75d1 b03d
000003d0: c34d b83b 3bc0 39be 4563 db3d 0148 643d
000003e0: 9822 53bd dd4b 013d 6090 ef3c 43d7 07bd
000003f0: 112f 623c f2f8 c0bc 309d 1e3e c1dc cd3d

feature_net.8.bias f4 [64]
-0.0020401983 -0.0048588496 0.02457508 -0.003070486 -0.005369942 0.024404593 -0.005461086 0.023707625
0.023961207 -0.0027126803 -0.0045304154 0.026751442 0.024354683 0.022846533 0.024047788 0.023433676
-0.0057334285 -0.004537055 0.02363789 0.024988396 -0.0048165224 -0.0041320366 -0.004222314 -0.0040689134
0.025109932 -0.0037470055 0.024365626 0.022626009 0.02432162 -0.0062656216 -0.000460343 0.021788048
0.025794977 -0.004285273 0.025172519 0.02396798 0.023367902 -0.006390154 0.024789605 -0.0053407126
0.024744157 -0.003967189 0.02251971 0.037118576 -0.0057414337 0.0236191 -0.018524267 0.024440467
-0.0037591546 -0.0057115513 -0.0050532226 0.031012299 0.026444513 -0.0036857072 -0.0049305162 -0.0039737257
0.02751478 0.025142346 -0.010174426 0.023606082 0.02452698 -0.004899138 0.02445642 -0.0029163403
00000000: d9b4 05bb fc36 9fbb ae51 c93c 353a 49bb
00000010: 57f6 afbb 24ec c73c e9f2 b2bb 7e36 c23c
00000020: 4b4a c43c 39c7 31bb e173 94bb d725 db3c
00000030: 7983 c73c a728 bb3c deff c43c fbf7 bf3c
00000040: 7cdf bbbb 93ab 94bb 40a4 c13c 77b4 cc3c
00000050: ebd3 9dbb 0966 87bb 565b 8abb 8554 85bb
00000060: 58b3 cd3c 5290 75bb 6c9a c73c 2e5a b93c
00000070: 223e c73c d84f cdbb 315a f1b9 d97c b23c
00000080: fd4f d33c 7a6b 8cbb 9936 ce3c 7f58 c43c
00000090: 0b6e bf3c 7f64 d1bb 9213 cb3c 2501 afbb
000000a0: 42b4 ca3c 32ff 81bb 417b b83c a609 183d
000000b0: a322 bcbb d87c c13c 34c0 97bc 6037 c83c
000000c0: 265c 76bb f727 bbbb 8195 a5bb 810d fe3c
000000d0: 2aa2 d83c e88b 71bb 2b90 a1bb 0736 82bb
000000e0: ad66 e13c 52f7 cd3c a3b2 26bc 8b61 c13c
000000f0: ceec c83c f388 a0bb d558 c83c 1220 3fbb

feature_net.10.weight f4 [1, 64]
0.031247633 0.40738848 -0.13559005 0.08148874 0.16939451 -0.149954 0.26915392 -0.46402085
-0.054107036 0.14647292 0.098554425 -0.13311452 -0.16362043 -0.026486322 -0.34337726 -0.0160952
0.06260253 0.2597478 -0.42904556 -0.06685347 0.15542021 0.14801937 0.072805114 0.23039845
-0.024381293 0.23784716 -0.06870367 -0.15104082 -0.18371913 0.061485093 0.041299373 -0.023764022
-0.24203119 0.06432826 -0.19393218 -0.20133154 -0.3584319 0.214329 -0.4798118 0.099863514
-0.11311185 0.24938387 -0.039243452 -0.029645268 0.3010872 -0.16366455 0.031420153 -0.024149587
0.15584213 0.095083654 0.20943052 -0.015749175 -0.06278117 0.062384132 0.13002871 0.20843859
-0.10961738 -0.092013896 0.024979493 -0.10385795 -0.10705759 0.1855067 -0.23693195 0.17939124
00000000: 09fb ff3c 3995 d03e 1ed8 0abe 92e3 a63d
00000010: c175 2d3e 8b8d 19be 8bce 893e 2494 edbe
00000020: 579f 5dbd fffc 153e e7d6 c93d 2c4f 08be
00000030: 1d8c 27be d8f9 d8bc 25cf afbe 15da 83bc
00000040: c135 803d aafd 843e dcab dbbe 79ea 88bd
00000050: 7a26 1f3e 6492 173e d91a 953d 92ed 6b3e
00000060: 47bb c7bc 358e 733e 82b4 8cbd 72aa 1abe
00000070: de20 3cbe cbd7 7b3d 8829 293d c4ac c2bc
00000080: 06d7 77be 89be 833d 2896 46be db29 4ebe
00000090: 6384 b7be 1079 5b3e e4a9 f5be 3e85 cc3d
000000a0: 30a7 e7bd 7c5e 7f3e bebd 20bd a2da f2bc
000000b0: 1a28 9a3e ae97 27be 6bb2 003d 5bd5 c5bc
000000c0: 1495 1f3e 38bb c23d f474 563e 6a04 81bc
000000d0: 6a93 80bd 8186 7f3d 3f26 053e ed70 553e
000000e0: 147f e0bd c871 bcbd cba1 cc3c 7ab3 d4bd
000000f0: 0241 dbbd 78f5 3d3e 4a9e 72be 56b2 373e
